node {
  name: "add/y"
  op: "Const"
  attr {
    key: "dtype"
    value {
      type: DT_FLOAT
    }
  }
  attr {
    key: "value"
    value {
      tensor {
        dtype: DT_FLOAT
        tensor_shape {
        }
        float_val: 1
      }
    }
  }
}
node {
  name: "Postprocessor/BatchMultiClassNonMaxSuppression/map/TensorArrayStack_4/range/delta"
  op: "Const"
  attr {
    key: "_class"
    value {
      list {
        s: "loc:@Postprocessor/BatchMultiClassNonMaxSuppression/map/TensorArray_9"
      }
    }
  }
  attr {
    key: "dtype"
    value {
      type: DT_INT32
    }
  }
  attr {
    key: "value"
    value {
      tensor {
        dtype: DT_INT32
        tensor_shape {
        }
        int_val: 1
      }
    }
  }
}
node {
  name: "Postprocessor/BatchMultiClassNonMaxSuppression/map/TensorArrayStack_4/range/start"
  op: "Const"
  attr {
    key: "_class"
    value {
      list {
        s: "loc:@Postprocessor/BatchMultiClassNonMaxSuppression/map/TensorArray_9"
      }
    }
  }
  attr {
    key: "dtype"
    value {
      type: DT_INT32
    }
  }
  attr {
    key: "value"
    value {
      tensor {
        dtype: DT_INT32
        tensor_shape {
        }
        int_val: 0
      }
    }
  }
}
node {
  name: "Postprocessor/BatchMultiClassNonMaxSuppression/map/TensorArrayStack_2/range/delta"
  op: "Const"
  attr {
    key: "_class"
    value {
      list {
        s: "loc:@Postprocessor/BatchMultiClassNonMaxSuppression/map/TensorArray_7"
      }
    }
  }
  attr {
    key: "dtype"
    value {
      type: DT_INT32
    }
  }
  attr {
    key: "value"
    value {
      tensor {
        dtype: DT_INT32
        tensor_shape {
        }
        int_val: 1
      }
    }
  }
}
node {
  name: "Postprocessor/BatchMultiClassNonMaxSuppression/map/TensorArrayStack_2/range/start"
  op: "Const"
  attr {
    key: "_class"
    value {
      list {
        s: "loc:@Postprocessor/BatchMultiClassNonMaxSuppression/map/TensorArray_7"
      }
    }
  }
  attr {
    key: "dtype"
    value {
      type: DT_INT32
    }
  }
  attr {
    key: "value"
    value {
      tensor {
        dtype: DT_INT32
        tensor_shape {
        }
        int_val: 0
      }
    }
  }
}
node {
  name: "Postprocessor/BatchMultiClassNonMaxSuppression/map/TensorArrayStack_1/range/delta"
  op: "Const"
  attr {
    key: "_class"
    value {
      list {
        s: "loc:@Postprocessor/BatchMultiClassNonMaxSuppression/map/TensorArray_6"
      }
    }
  }
  attr {
    key: "dtype"
    value {
      type: DT_INT32
    }
  }
  attr {
    key: "value"
    value {
      tensor {
        dtype: DT_INT32
        tensor_shape {
        }
        int_val: 1
      }
    }
  }
}
node {
  name: "Postprocessor/BatchMultiClassNonMaxSuppression/map/TensorArrayStack_1/range/start"
  op: "Const"
  attr {
    key: "_class"
    value {
      list {
        s: "loc:@Postprocessor/BatchMultiClassNonMaxSuppression/map/TensorArray_6"
      }
    }
  }
  attr {
    key: "dtype"
    value {
      type: DT_INT32
    }
  }
  attr {
    key: "value"
    value {
      tensor {
        dtype: DT_INT32
        tensor_shape {
        }
        int_val: 0
      }
    }
  }
}
node {
  name: "Postprocessor/BatchMultiClassNonMaxSuppression/map/TensorArrayStack/range/delta"
  op: "Const"
  attr {
    key: "_class"
    value {
      list {
        s: "loc:@Postprocessor/BatchMultiClassNonMaxSuppression/map/TensorArray_5"
      }
    }
  }
  attr {
    key: "dtype"
    value {
      type: DT_INT32
    }
  }
  attr {
    key: "value"
    value {
      tensor {
        dtype: DT_INT32
        tensor_shape {
        }
        int_val: 1
      }
    }
  }
}
node {
  name: "Postprocessor/BatchMultiClassNonMaxSuppression/map/TensorArrayStack/range/start"
  op: "Const"
  attr {
    key: "_class"
    value {
      list {
        s: "loc:@Postprocessor/BatchMultiClassNonMaxSuppression/map/TensorArray_5"
      }
    }
  }
  attr {
    key: "dtype"
    value {
      type: DT_INT32
    }
  }
  attr {
    key: "value"
    value {
      tensor {
        dtype: DT_INT32
        tensor_shape {
        }
        int_val: 0
      }
    }
  }
}
node {
  name: "Postprocessor/BatchMultiClassNonMaxSuppression/map/while/iteration_counter"
  op: "Const"
  attr {
    key: "dtype"
    value {
      type: DT_INT32
    }
  }
  attr {
    key: "value"
    value {
      tensor {
        dtype: DT_INT32
        tensor_shape {
        }
        int_val: 0
      }
    }
  }
}
node {
  name: "Postprocessor/BatchMultiClassNonMaxSuppression/map/while/Enter"
  op: "Enter"
  input: "Postprocessor/BatchMultiClassNonMaxSuppression/map/while/iteration_counter"
  attr {
    key: "T"
    value {
      type: DT_INT32
    }
  }
  attr {
    key: "frame_name"
    value {
      s: "Postprocessor/BatchMultiClassNonMaxSuppression/map/while/while_context"
    }
  }
  attr {
    key: "is_constant"
    value {
      b: false
    }
  }
  attr {
    key: "parallel_iterations"
    value {
      i: 32
    }
  }
}
node {
  name: "Postprocessor/BatchMultiClassNonMaxSuppression/map/while/Merge"
  op: "Merge"
  input: "Postprocessor/BatchMultiClassNonMaxSuppression/map/while/Enter"
  input: "Postprocessor/BatchMultiClassNonMaxSuppression/map/while/NextIteration"
  attr {
    key: "N"
    value {
      i: 2
    }
  }
  attr {
    key: "T"
    value {
      type: DT_INT32
    }
  }
}
node {
  name: "Postprocessor/BatchMultiClassNonMaxSuppression/map/Const"
  op: "Const"
  attr {
    key: "dtype"
    value {
      type: DT_INT32
    }
  }
  attr {
    key: "value"
    value {
      tensor {
        dtype: DT_INT32
        tensor_shape {
        }
        int_val: 0
      }
    }
  }
}
node {
  name: "Postprocessor/BatchMultiClassNonMaxSuppression/map/while/Enter_1"
  op: "Enter"
  input: "Postprocessor/BatchMultiClassNonMaxSuppression/map/Const"
  attr {
    key: "T"
    value {
      type: DT_INT32
    }
  }
  attr {
    key: "frame_name"
    value {
      s: "Postprocessor/BatchMultiClassNonMaxSuppression/map/while/while_context"
    }
  }
  attr {
    key: "is_constant"
    value {
      b: false
    }
  }
  attr {
    key: "parallel_iterations"
    value {
      i: 32
    }
  }
}
node {
  name: "Postprocessor/BatchMultiClassNonMaxSuppression/map/while/Merge_1"
  op: "Merge"
  input: "Postprocessor/BatchMultiClassNonMaxSuppression/map/while/Enter_1"
  input: "Postprocessor/BatchMultiClassNonMaxSuppression/map/while/NextIteration_1"
  attr {
    key: "N"
    value {
      i: 2
    }
  }
  attr {
    key: "T"
    value {
      type: DT_INT32
    }
  }
}
node {
  name: "Postprocessor/BatchMultiClassNonMaxSuppression/map/TensorArrayUnstack_4/range/delta"
  op: "Const"
  attr {
    key: "dtype"
    value {
      type: DT_INT32
    }
  }
  attr {
    key: "value"
    value {
      tensor {
        dtype: DT_INT32
        tensor_shape {
        }
        int_val: 1
      }
    }
  }
}
node {
  name: "Postprocessor/BatchMultiClassNonMaxSuppression/map/TensorArrayUnstack_4/range/start"
  op: "Const"
  attr {
    key: "dtype"
    value {
      type: DT_INT32
    }
  }
  attr {
    key: "value"
    value {
      tensor {
        dtype: DT_INT32
        tensor_shape {
        }
        int_val: 0
      }
    }
  }
}
node {
  name: "Postprocessor/BatchMultiClassNonMaxSuppression/map/TensorArrayUnstack_4/strided_slice/stack_2"
  op: "Const"
  attr {
    key: "dtype"
    value {
      type: DT_INT32
    }
  }
  attr {
    key: "value"
    value {
      tensor {
        dtype: DT_INT32
        tensor_shape {
          dim {
            size: 1
          }
        }
        int_val: 1
      }
    }
  }
}
node {
  name: "Postprocessor/BatchMultiClassNonMaxSuppression/map/TensorArrayUnstack_4/strided_slice/stack_1"
  op: "Const"
  attr {
    key: "dtype"
    value {
      type: DT_INT32
    }
  }
  attr {
    key: "value"
    value {
      tensor {
        dtype: DT_INT32
        tensor_shape {
          dim {
            size: 1
          }
        }
        int_val: 1
      }
    }
  }
}
node {
  name: "Postprocessor/BatchMultiClassNonMaxSuppression/map/TensorArrayUnstack_4/strided_slice/stack"
  op: "Const"
  attr {
    key: "dtype"
    value {
      type: DT_INT32
    }
  }
  attr {
    key: "value"
    value {
      tensor {
        dtype: DT_INT32
        tensor_shape {
          dim {
            size: 1
          }
        }
        int_val: 0
      }
    }
  }
}
node {
  name: "Postprocessor/BatchMultiClassNonMaxSuppression/map/TensorArrayUnstack_3/range/delta"
  op: "Const"
  attr {
    key: "dtype"
    value {
      type: DT_INT32
    }
  }
  attr {
    key: "value"
    value {
      tensor {
        dtype: DT_INT32
        tensor_shape {
        }
        int_val: 1
      }
    }
  }
}
node {
  name: "Postprocessor/BatchMultiClassNonMaxSuppression/map/TensorArrayUnstack_3/range/start"
  op: "Const"
  attr {
    key: "dtype"
    value {
      type: DT_INT32
    }
  }
  attr {
    key: "value"
    value {
      tensor {
        dtype: DT_INT32
        tensor_shape {
        }
        int_val: 0
      }
    }
  }
}
node {
  name: "Postprocessor/BatchMultiClassNonMaxSuppression/map/TensorArrayUnstack_3/strided_slice/stack_2"
  op: "Const"
  attr {
    key: "dtype"
    value {
      type: DT_INT32
    }
  }
  attr {
    key: "value"
    value {
      tensor {
        dtype: DT_INT32
        tensor_shape {
          dim {
            size: 1
          }
        }
        int_val: 1
      }
    }
  }
}
node {
  name: "Postprocessor/BatchMultiClassNonMaxSuppression/map/TensorArrayUnstack_3/strided_slice/stack_1"
  op: "Const"
  attr {
    key: "dtype"
    value {
      type: DT_INT32
    }
  }
  attr {
    key: "value"
    value {
      tensor {
        dtype: DT_INT32
        tensor_shape {
          dim {
            size: 1
          }
        }
        int_val: 1
      }
    }
  }
}
node {
  name: "Postprocessor/BatchMultiClassNonMaxSuppression/map/TensorArrayUnstack_3/strided_slice/stack"
  op: "Const"
  attr {
    key: "dtype"
    value {
      type: DT_INT32
    }
  }
  attr {
    key: "value"
    value {
      tensor {
        dtype: DT_INT32
        tensor_shape {
          dim {
            size: 1
          }
        }
        int_val: 0
      }
    }
  }
}
node {
  name: "Postprocessor/BatchMultiClassNonMaxSuppression/map/TensorArrayUnstack_1/range/delta"
  op: "Const"
  attr {
    key: "dtype"
    value {
      type: DT_INT32
    }
  }
  attr {
    key: "value"
    value {
      tensor {
        dtype: DT_INT32
        tensor_shape {
        }
        int_val: 1
      }
    }
  }
}
node {
  name: "Postprocessor/BatchMultiClassNonMaxSuppression/map/TensorArrayUnstack_1/range/start"
  op: "Const"
  attr {
    key: "dtype"
    value {
      type: DT_INT32
    }
  }
  attr {
    key: "value"
    value {
      tensor {
        dtype: DT_INT32
        tensor_shape {
        }
        int_val: 0
      }
    }
  }
}
node {
  name: "Postprocessor/BatchMultiClassNonMaxSuppression/map/TensorArrayUnstack_1/strided_slice/stack_2"
  op: "Const"
  attr {
    key: "dtype"
    value {
      type: DT_INT32
    }
  }
  attr {
    key: "value"
    value {
      tensor {
        dtype: DT_INT32
        tensor_shape {
          dim {
            size: 1
          }
        }
        int_val: 1
      }
    }
  }
}
node {
  name: "Postprocessor/BatchMultiClassNonMaxSuppression/map/TensorArrayUnstack_1/strided_slice/stack_1"
  op: "Const"
  attr {
    key: "dtype"
    value {
      type: DT_INT32
    }
  }
  attr {
    key: "value"
    value {
      tensor {
        dtype: DT_INT32
        tensor_shape {
          dim {
            size: 1
          }
        }
        int_val: 1
      }
    }
  }
}
node {
  name: "Postprocessor/BatchMultiClassNonMaxSuppression/map/TensorArrayUnstack_1/strided_slice/stack"
  op: "Const"
  attr {
    key: "dtype"
    value {
      type: DT_INT32
    }
  }
  attr {
    key: "value"
    value {
      tensor {
        dtype: DT_INT32
        tensor_shape {
          dim {
            size: 1
          }
        }
        int_val: 0
      }
    }
  }
}
node {
  name: "Postprocessor/BatchMultiClassNonMaxSuppression/map/TensorArrayUnstack/range/delta"
  op: "Const"
  attr {
    key: "dtype"
    value {
      type: DT_INT32
    }
  }
  attr {
    key: "value"
    value {
      tensor {
        dtype: DT_INT32
        tensor_shape {
        }
        int_val: 1
      }
    }
  }
}
node {
  name: "Postprocessor/BatchMultiClassNonMaxSuppression/map/TensorArrayUnstack/range/start"
  op: "Const"
  attr {
    key: "dtype"
    value {
      type: DT_INT32
    }
  }
  attr {
    key: "value"
    value {
      tensor {
        dtype: DT_INT32
        tensor_shape {
        }
        int_val: 0
      }
    }
  }
}
node {
  name: "Postprocessor/BatchMultiClassNonMaxSuppression/map/TensorArrayUnstack/strided_slice/stack_2"
  op: "Const"
  attr {
    key: "dtype"
    value {
      type: DT_INT32
    }
  }
  attr {
    key: "value"
    value {
      tensor {
        dtype: DT_INT32
        tensor_shape {
          dim {
            size: 1
          }
        }
        int_val: 1
      }
    }
  }
}
node {
  name: "Postprocessor/BatchMultiClassNonMaxSuppression/map/TensorArrayUnstack/strided_slice/stack_1"
  op: "Const"
  attr {
    key: "dtype"
    value {
      type: DT_INT32
    }
  }
  attr {
    key: "value"
    value {
      tensor {
        dtype: DT_INT32
        tensor_shape {
          dim {
            size: 1
          }
        }
        int_val: 1
      }
    }
  }
}
node {
  name: "Postprocessor/BatchMultiClassNonMaxSuppression/map/TensorArrayUnstack/strided_slice/stack"
  op: "Const"
  attr {
    key: "dtype"
    value {
      type: DT_INT32
    }
  }
  attr {
    key: "value"
    value {
      tensor {
        dtype: DT_INT32
        tensor_shape {
          dim {
            size: 1
          }
        }
        int_val: 0
      }
    }
  }
}
node {
  name: "Postprocessor/BatchMultiClassNonMaxSuppression/map/strided_slice/stack_2"
  op: "Const"
  attr {
    key: "dtype"
    value {
      type: DT_INT32
    }
  }
  attr {
    key: "value"
    value {
      tensor {
        dtype: DT_INT32
        tensor_shape {
          dim {
            size: 1
          }
        }
        int_val: 1
      }
    }
  }
}
node {
  name: "Postprocessor/BatchMultiClassNonMaxSuppression/map/strided_slice/stack_1"
  op: "Const"
  attr {
    key: "dtype"
    value {
      type: DT_INT32
    }
  }
  attr {
    key: "value"
    value {
      tensor {
        dtype: DT_INT32
        tensor_shape {
          dim {
            size: 1
          }
        }
        int_val: 1
      }
    }
  }
}
node {
  name: "Postprocessor/BatchMultiClassNonMaxSuppression/map/strided_slice/stack"
  op: "Const"
  attr {
    key: "dtype"
    value {
      type: DT_INT32
    }
  }
  attr {
    key: "value"
    value {
      tensor {
        dtype: DT_INT32
        tensor_shape {
          dim {
            size: 1
          }
        }
        int_val: 0
      }
    }
  }
}
node {
  name: "Postprocessor/BatchMultiClassNonMaxSuppression/ones/Const"
  op: "Const"
  attr {
    key: "dtype"
    value {
      type: DT_INT32
    }
  }
  attr {
    key: "value"
    value {
      tensor {
        dtype: DT_INT32
        tensor_shape {
        }
        int_val: 1
      }
    }
  }
}
node {
  name: "Postprocessor/BatchMultiClassNonMaxSuppression/strided_slice_1/stack_2"
  op: "Const"
  attr {
    key: "dtype"
    value {
      type: DT_INT32
    }
  }
  attr {
    key: "value"
    value {
      tensor {
        dtype: DT_INT32
        tensor_shape {
          dim {
            size: 1
          }
        }
        int_val: 1
      }
    }
  }
}
node {
  name: "Postprocessor/BatchMultiClassNonMaxSuppression/strided_slice_1/stack_1"
  op: "Const"
  attr {
    key: "dtype"
    value {
      type: DT_INT32
    }
  }
  attr {
    key: "value"
    value {
      tensor {
        dtype: DT_INT32
        tensor_shape {
          dim {
            size: 1
          }
        }
        int_val: 2
      }
    }
  }
}
node {
  name: "Postprocessor/BatchMultiClassNonMaxSuppression/strided_slice_1/stack"
  op: "Const"
  attr {
    key: "dtype"
    value {
      type: DT_INT32
    }
  }
  attr {
    key: "value"
    value {
      tensor {
        dtype: DT_INT32
        tensor_shape {
          dim {
            size: 1
          }
        }
        int_val: 1
      }
    }
  }
}
node {
  name: "Postprocessor/BatchMultiClassNonMaxSuppression/strided_slice/stack_2"
  op: "Const"
  attr {
    key: "dtype"
    value {
      type: DT_INT32
    }
  }
  attr {
    key: "value"
    value {
      tensor {
        dtype: DT_INT32
        tensor_shape {
          dim {
            size: 1
          }
        }
        int_val: 1
      }
    }
  }
}
node {
  name: "Postprocessor/BatchMultiClassNonMaxSuppression/strided_slice/stack_1"
  op: "Const"
  attr {
    key: "dtype"
    value {
      type: DT_INT32
    }
  }
  attr {
    key: "value"
    value {
      tensor {
        dtype: DT_INT32
        tensor_shape {
          dim {
            size: 1
          }
        }
        int_val: 1
      }
    }
  }
}
node {
  name: "Postprocessor/BatchMultiClassNonMaxSuppression/strided_slice/stack"
  op: "Const"
  attr {
    key: "dtype"
    value {
      type: DT_INT32
    }
  }
  attr {
    key: "value"
    value {
      tensor {
        dtype: DT_INT32
        tensor_shape {
          dim {
            size: 1
          }
        }
        int_val: 0
      }
    }
  }
}
node {
  name: "Postprocessor/ToFloat_2/x"
  op: "Const"
  attr {
    key: "dtype"
    value {
      type: DT_INT32
    }
  }
  attr {
    key: "value"
    value {
      tensor {
        dtype: DT_INT32
        tensor_shape {
        }
        int_val: 300
      }
    }
  }
}
node {
  name: "Postprocessor/ToFloat_2"
  op: "Cast"
  input: "Postprocessor/ToFloat_2/x"
  attr {
    key: "DstT"
    value {
      type: DT_FLOAT
    }
  }
  attr {
    key: "SrcT"
    value {
      type: DT_INT32
    }
  }
  attr {
    key: "Truncate"
    value {
      b: false
    }
  }
}
node {
  name: "Postprocessor/ToFloat_1/x"
  op: "Const"
  attr {
    key: "dtype"
    value {
      type: DT_INT32
    }
  }
  attr {
    key: "value"
    value {
      tensor {
        dtype: DT_INT32
        tensor_shape {
        }
        int_val: 300
      }
    }
  }
}
node {
  name: "Postprocessor/ToFloat_1"
  op: "Cast"
  input: "Postprocessor/ToFloat_1/x"
  attr {
    key: "DstT"
    value {
      type: DT_FLOAT
    }
  }
  attr {
    key: "SrcT"
    value {
      type: DT_INT32
    }
  }
  attr {
    key: "Truncate"
    value {
      b: false
    }
  }
}
node {
  name: "Postprocessor/Slice/size"
  op: "Const"
  attr {
    key: "dtype"
    value {
      type: DT_INT32
    }
  }
  attr {
    key: "value"
    value {
      tensor {
        dtype: DT_INT32
        tensor_shape {
          dim {
            size: 3
          }
        }
      }
    }
  }
}
node {
  name: "Postprocessor/Slice/begin"
  op: "Const"
  attr {
    key: "dtype"
    value {
      type: DT_INT32
    }
  }
  attr {
    key: "value"
    value {
      tensor {
        dtype: DT_INT32
        tensor_shape {
          dim {
            size: 3
          }
        }
      }
    }
  }
}
node {
  name: "Postprocessor/scale_logits/y"
  op: "Const"
  attr {
    key: "dtype"
    value {
      type: DT_FLOAT
    }
  }
  attr {
    key: "value"
    value {
      tensor {
        dtype: DT_FLOAT
        tensor_shape {
        }
        float_val: 1
      }
    }
  }
}
node {
  name: "Postprocessor/ExpandDims_1/dim"
  op: "Const"
  attr {
    key: "dtype"
    value {
      type: DT_INT32
    }
  }
  attr {
    key: "value"
    value {
      tensor {
        dtype: DT_INT32
        tensor_shape {
        }
        int_val: 2
      }
    }
  }
}
node {
  name: "Postprocessor/stack/2"
  op: "Const"
  attr {
    key: "dtype"
    value {
      type: DT_INT32
    }
  }
  attr {
    key: "value"
    value {
      tensor {
        dtype: DT_INT32
        tensor_shape {
        }
        int_val: 4
      }
    }
  }
}
node {
  name: "Postprocessor/Decode/transpose_1/perm"
  op: "Const"
  attr {
    key: "dtype"
    value {
      type: DT_INT32
    }
  }
  attr {
    key: "value"
    value {
      tensor {
        dtype: DT_INT32
        tensor_shape {
          dim {
            size: 2
          }
        }
      }
    }
  }
}
node {
  name: "Postprocessor/Decode/truediv_7/y"
  op: "Const"
  attr {
    key: "dtype"
    value {
      type: DT_FLOAT
    }
  }
  attr {
    key: "value"
    value {
      tensor {
        dtype: DT_FLOAT
        tensor_shape {
        }
        float_val: 2
      }
    }
  }
}
node {
  name: "Postprocessor/Decode/truediv_6/y"
  op: "Const"
  attr {
    key: "dtype"
    value {
      type: DT_FLOAT
    }
  }
  attr {
    key: "value"
    value {
      tensor {
        dtype: DT_FLOAT
        tensor_shape {
        }
        float_val: 2
      }
    }
  }
}
node {
  name: "Postprocessor/Decode/truediv_5/y"
  op: "Const"
  attr {
    key: "dtype"
    value {
      type: DT_FLOAT
    }
  }
  attr {
    key: "value"
    value {
      tensor {
        dtype: DT_FLOAT
        tensor_shape {
        }
        float_val: 2
      }
    }
  }
}
node {
  name: "Postprocessor/Decode/truediv_4/y"
  op: "Const"
  attr {
    key: "dtype"
    value {
      type: DT_FLOAT
    }
  }
  attr {
    key: "value"
    value {
      tensor {
        dtype: DT_FLOAT
        tensor_shape {
        }
        float_val: 2
      }
    }
  }
}
node {
  name: "Postprocessor/Decode/truediv_3/y"
  op: "Const"
  attr {
    key: "dtype"
    value {
      type: DT_FLOAT
    }
  }
  attr {
    key: "value"
    value {
      tensor {
        dtype: DT_FLOAT
        tensor_shape {
        }
        float_val: 5
      }
    }
  }
}
node {
  name: "Postprocessor/Decode/truediv_2/y"
  op: "Const"
  attr {
    key: "dtype"
    value {
      type: DT_FLOAT
    }
  }
  attr {
    key: "value"
    value {
      tensor {
        dtype: DT_FLOAT
        tensor_shape {
        }
        float_val: 5
      }
    }
  }
}
node {
  name: "Postprocessor/Decode/truediv_1/y"
  op: "Const"
  attr {
    key: "dtype"
    value {
      type: DT_FLOAT
    }
  }
  attr {
    key: "value"
    value {
      tensor {
        dtype: DT_FLOAT
        tensor_shape {
        }
        float_val: 10
      }
    }
  }
}
node {
  name: "Postprocessor/Decode/truediv/y"
  op: "Const"
  attr {
    key: "dtype"
    value {
      type: DT_FLOAT
    }
  }
  attr {
    key: "value"
    value {
      tensor {
        dtype: DT_FLOAT
        tensor_shape {
        }
        float_val: 10
      }
    }
  }
}
node {
  name: "Postprocessor/Decode/transpose/perm"
  op: "Const"
  attr {
    key: "dtype"
    value {
      type: DT_INT32
    }
  }
  attr {
    key: "value"
    value {
      tensor {
        dtype: DT_INT32
        tensor_shape {
          dim {
            size: 2
          }
        }
      }
    }
  }
}
node {
  name: "Postprocessor/Decode/get_center_coordinates_and_sizes/truediv_1/y"
  op: "Const"
  attr {
    key: "dtype"
    value {
      type: DT_FLOAT
    }
  }
  attr {
    key: "value"
    value {
      tensor {
        dtype: DT_FLOAT
        tensor_shape {
        }
        float_val: 2
      }
    }
  }
}
node {
  name: "Postprocessor/Decode/get_center_coordinates_and_sizes/truediv/y"
  op: "Const"
  attr {
    key: "dtype"
    value {
      type: DT_FLOAT
    }
  }
  attr {
    key: "value"
    value {
      tensor {
        dtype: DT_FLOAT
        tensor_shape {
        }
        float_val: 2
      }
    }
  }
}
node {
  name: "Postprocessor/Decode/get_center_coordinates_and_sizes/transpose/perm"
  op: "Const"
  attr {
    key: "dtype"
    value {
      type: DT_INT32
    }
  }
  attr {
    key: "value"
    value {
      tensor {
        dtype: DT_INT32
        tensor_shape {
          dim {
            size: 2
          }
        }
      }
    }
  }
}
node {
  name: "Postprocessor/Reshape_1/shape"
  op: "Const"
  attr {
    key: "dtype"
    value {
      type: DT_INT32
    }
  }
  attr {
    key: "value"
    value {
      tensor {
        dtype: DT_INT32
        tensor_shape {
          dim {
            size: 2
          }
        }
      }
    }
  }
}
node {
  name: "Postprocessor/Reshape/shape"
  op: "Const"
  attr {
    key: "dtype"
    value {
      type: DT_INT32
    }
  }
  attr {
    key: "value"
    value {
      tensor {
        dtype: DT_INT32
        tensor_shape {
          dim {
            size: 2
          }
        }
      }
    }
  }
}
node {
  name: "Postprocessor/Tile/multiples/2"
  op: "Const"
  attr {
    key: "dtype"
    value {
      type: DT_INT32
    }
  }
  attr {
    key: "value"
    value {
      tensor {
        dtype: DT_INT32
        tensor_shape {
        }
        int_val: 1
      }
    }
  }
}
node {
  name: "Postprocessor/Tile/multiples/1"
  op: "Const"
  attr {
    key: "dtype"
    value {
      type: DT_INT32
    }
  }
  attr {
    key: "value"
    value {
      tensor {
        dtype: DT_INT32
        tensor_shape {
        }
        int_val: 1
      }
    }
  }
}
node {
  name: "Postprocessor/ExpandDims/dim"
  op: "Const"
  attr {
    key: "dtype"
    value {
      type: DT_INT32
    }
  }
  attr {
    key: "value"
    value {
      tensor {
        dtype: DT_INT32
        tensor_shape {
        }
        int_val: 0
      }
    }
  }
}
node {
  name: "Postprocessor/strided_slice_1/stack_2"
  op: "Const"
  attr {
    key: "dtype"
    value {
      type: DT_INT32
    }
  }
  attr {
    key: "value"
    value {
      tensor {
        dtype: DT_INT32
        tensor_shape {
          dim {
            size: 1
          }
        }
        int_val: 1
      }
    }
  }
}
node {
  name: "Postprocessor/strided_slice_1/stack_1"
  op: "Const"
  attr {
    key: "dtype"
    value {
      type: DT_INT32
    }
  }
  attr {
    key: "value"
    value {
      tensor {
        dtype: DT_INT32
        tensor_shape {
          dim {
            size: 1
          }
        }
        int_val: 2
      }
    }
  }
}
node {
  name: "Postprocessor/strided_slice_1/stack"
  op: "Const"
  attr {
    key: "dtype"
    value {
      type: DT_INT32
    }
  }
  attr {
    key: "value"
    value {
      tensor {
        dtype: DT_INT32
        tensor_shape {
          dim {
            size: 1
          }
        }
        int_val: 1
      }
    }
  }
}
node {
  name: "Postprocessor/strided_slice/stack_2"
  op: "Const"
  attr {
    key: "dtype"
    value {
      type: DT_INT32
    }
  }
  attr {
    key: "value"
    value {
      tensor {
        dtype: DT_INT32
        tensor_shape {
          dim {
            size: 1
          }
        }
        int_val: 1
      }
    }
  }
}
node {
  name: "Postprocessor/strided_slice/stack_1"
  op: "Const"
  attr {
    key: "dtype"
    value {
      type: DT_INT32
    }
  }
  attr {
    key: "value"
    value {
      tensor {
        dtype: DT_INT32
        tensor_shape {
          dim {
            size: 1
          }
        }
        int_val: 1
      }
    }
  }
}
node {
  name: "Postprocessor/strided_slice/stack"
  op: "Const"
  attr {
    key: "dtype"
    value {
      type: DT_INT32
    }
  }
  attr {
    key: "value"
    value {
      tensor {
        dtype: DT_INT32
        tensor_shape {
          dim {
            size: 1
          }
        }
        int_val: 0
      }
    }
  }
}
node {
  name: "concat_1/axis"
  op: "Const"
  attr {
    key: "dtype"
    value {
      type: DT_INT32
    }
  }
  attr {
    key: "value"
    value {
      tensor {
        dtype: DT_INT32
        tensor_shape {
        }
        int_val: 1
      }
    }
  }
}
node {
  name: "concat/axis"
  op: "Const"
  attr {
    key: "dtype"
    value {
      type: DT_INT32
    }
  }
  attr {
    key: "value"
    value {
      tensor {
        dtype: DT_INT32
        tensor_shape {
        }
        int_val: 1
      }
    }
  }
}
node {
  name: "BoxPredictor_5/Reshape_1/shape/2"
  op: "Const"
  attr {
    key: "dtype"
    value {
      type: DT_INT32
    }
  }
  attr {
    key: "value"
    value {
      tensor {
        dtype: DT_INT32
        tensor_shape {
        }
        int_val: 5
      }
    }
  }
}
node {
  name: "BoxPredictor_5/Reshape_1/shape/1"
  op: "Const"
  attr {
    key: "dtype"
    value {
      type: DT_INT32
    }
  }
  attr {
    key: "value"
    value {
      tensor {
        dtype: DT_INT32
        tensor_shape {
        }
        int_val: -1
      }
    }
  }
}
node {
  name: "BoxPredictor_5/strided_slice_1/stack_2"
  op: "Const"
  attr {
    key: "dtype"
    value {
      type: DT_INT32
    }
  }
  attr {
    key: "value"
    value {
      tensor {
        dtype: DT_INT32
        tensor_shape {
          dim {
            size: 1
          }
        }
        int_val: 1
      }
    }
  }
}
node {
  name: "BoxPredictor_5/strided_slice_1/stack_1"
  op: "Const"
  attr {
    key: "dtype"
    value {
      type: DT_INT32
    }
  }
  attr {
    key: "value"
    value {
      tensor {
        dtype: DT_INT32
        tensor_shape {
          dim {
            size: 1
          }
        }
        int_val: 1
      }
    }
  }
}
node {
  name: "BoxPredictor_5/strided_slice_1/stack"
  op: "Const"
  attr {
    key: "dtype"
    value {
      type: DT_INT32
    }
  }
  attr {
    key: "value"
    value {
      tensor {
        dtype: DT_INT32
        tensor_shape {
          dim {
            size: 1
          }
        }
        int_val: 0
      }
    }
  }
}
node {
  name: "BoxPredictor_5/ClassPredictor/biases"
  op: "Const"
  attr {
    key: "dtype"
    value {
      type: DT_FLOAT
    }
  }
  attr {
    key: "value"
    value {
      tensor {
        dtype: DT_FLOAT
        tensor_shape {
          dim {
            size: 30
          }
        }
      }
    }
  }
}
node {
  name: "BoxPredictor_5/ClassPredictor/biases/read"
  op: "Identity"
  input: "BoxPredictor_5/ClassPredictor/biases"
  attr {
    key: "T"
    value {
      type: DT_FLOAT
    }
  }
  attr {
    key: "_class"
    value {
      list {
        s: "loc:@BoxPredictor_5/ClassPredictor/biases"
      }
    }
  }
}
node {
  name: "BoxPredictor_5/ClassPredictor/weights"
  op: "Const"
  attr {
    key: "dtype"
    value {
      type: DT_FLOAT
    }
  }
  attr {
    key: "value"
    value {
      tensor {
        dtype: DT_FLOAT
        tensor_shape {
          dim {
            size: 1
          }
          dim {
            size: 1
          }
          dim {
            size: 128
          }
          dim {
            size: 30
          }
        }
      }
    }
  }
}
node {
  name: "BoxPredictor_5/ClassPredictor/weights/read"
  op: "Identity"
  input: "BoxPredictor_5/ClassPredictor/weights"
  attr {
    key: "T"
    value {
      type: DT_FLOAT
    }
  }
  attr {
    key: "_class"
    value {
      list {
        s: "loc:@BoxPredictor_5/ClassPredictor/weights"
      }
    }
  }
}
node {
  name: "BoxPredictor_5/ClassPredictor_depthwise/BatchNorm/moving_variance"
  op: "Const"
  attr {
    key: "dtype"
    value {
      type: DT_FLOAT
    }
  }
  attr {
    key: "value"
    value {
      tensor {
        dtype: DT_FLOAT
        tensor_shape {
          dim {
            size: 128
          }
        }
      }
    }
  }
}
node {
  name: "BoxPredictor_5/ClassPredictor_depthwise/BatchNorm/moving_variance/read"
  op: "Identity"
  input: "BoxPredictor_5/ClassPredictor_depthwise/BatchNorm/moving_variance"
  attr {
    key: "T"
    value {
      type: DT_FLOAT
    }
  }
  attr {
    key: "_class"
    value {
      list {
        s: "loc:@BoxPredictor_5/ClassPredictor_depthwise/BatchNorm/moving_variance"
      }
    }
  }
}
node {
  name: "BoxPredictor_5/ClassPredictor_depthwise/BatchNorm/moving_mean"
  op: "Const"
  attr {
    key: "dtype"
    value {
      type: DT_FLOAT
    }
  }
  attr {
    key: "value"
    value {
      tensor {
        dtype: DT_FLOAT
        tensor_shape {
          dim {
            size: 128
          }
        }
      }
    }
  }
}
node {
  name: "BoxPredictor_5/ClassPredictor_depthwise/BatchNorm/moving_mean/read"
  op: "Identity"
  input: "BoxPredictor_5/ClassPredictor_depthwise/BatchNorm/moving_mean"
  attr {
    key: "T"
    value {
      type: DT_FLOAT
    }
  }
  attr {
    key: "_class"
    value {
      list {
        s: "loc:@BoxPredictor_5/ClassPredictor_depthwise/BatchNorm/moving_mean"
      }
    }
  }
}
node {
  name: "BoxPredictor_5/ClassPredictor_depthwise/BatchNorm/beta"
  op: "Const"
  attr {
    key: "dtype"
    value {
      type: DT_FLOAT
    }
  }
  attr {
    key: "value"
    value {
      tensor {
        dtype: DT_FLOAT
        tensor_shape {
          dim {
            size: 128
          }
        }
      }
    }
  }
}
node {
  name: "BoxPredictor_5/ClassPredictor_depthwise/BatchNorm/beta/read"
  op: "Identity"
  input: "BoxPredictor_5/ClassPredictor_depthwise/BatchNorm/beta"
  attr {
    key: "T"
    value {
      type: DT_FLOAT
    }
  }
  attr {
    key: "_class"
    value {
      list {
        s: "loc:@BoxPredictor_5/ClassPredictor_depthwise/BatchNorm/beta"
      }
    }
  }
}
node {
  name: "BoxPredictor_5/ClassPredictor_depthwise/BatchNorm/gamma"
  op: "Const"
  attr {
    key: "dtype"
    value {
      type: DT_FLOAT
    }
  }
  attr {
    key: "value"
    value {
      tensor {
        dtype: DT_FLOAT
        tensor_shape {
          dim {
            size: 128
          }
        }
      }
    }
  }
}
node {
  name: "BoxPredictor_5/ClassPredictor_depthwise/BatchNorm/gamma/read"
  op: "Identity"
  input: "BoxPredictor_5/ClassPredictor_depthwise/BatchNorm/gamma"
  attr {
    key: "T"
    value {
      type: DT_FLOAT
    }
  }
  attr {
    key: "_class"
    value {
      list {
        s: "loc:@BoxPredictor_5/ClassPredictor_depthwise/BatchNorm/gamma"
      }
    }
  }
}
node {
  name: "BoxPredictor_5/ClassPredictor_depthwise/depthwise_weights"
  op: "Const"
  attr {
    key: "dtype"
    value {
      type: DT_FLOAT
    }
  }
  attr {
    key: "value"
    value {
      tensor {
        dtype: DT_FLOAT
        tensor_shape {
          dim {
            size: 3
          }
          dim {
            size: 3
          }
          dim {
            size: 128
          }
          dim {
            size: 1
          }
        }
      }
    }
  }
}
node {
  name: "BoxPredictor_5/ClassPredictor_depthwise/depthwise_weights/read"
  op: "Identity"
  input: "BoxPredictor_5/ClassPredictor_depthwise/depthwise_weights"
  attr {
    key: "T"
    value {
      type: DT_FLOAT
    }
  }
  attr {
    key: "_class"
    value {
      list {
        s: "loc:@BoxPredictor_5/ClassPredictor_depthwise/depthwise_weights"
      }
    }
  }
}
node {
  name: "BoxPredictor_5/Reshape/shape/3"
  op: "Const"
  attr {
    key: "dtype"
    value {
      type: DT_INT32
    }
  }
  attr {
    key: "value"
    value {
      tensor {
        dtype: DT_INT32
        tensor_shape {
        }
        int_val: 4
      }
    }
  }
}
node {
  name: "BoxPredictor_5/Reshape/shape/2"
  op: "Const"
  attr {
    key: "dtype"
    value {
      type: DT_INT32
    }
  }
  attr {
    key: "value"
    value {
      tensor {
        dtype: DT_INT32
        tensor_shape {
        }
        int_val: 1
      }
    }
  }
}
node {
  name: "BoxPredictor_5/Reshape/shape/1"
  op: "Const"
  attr {
    key: "dtype"
    value {
      type: DT_INT32
    }
  }
  attr {
    key: "value"
    value {
      tensor {
        dtype: DT_INT32
        tensor_shape {
        }
        int_val: -1
      }
    }
  }
}
node {
  name: "BoxPredictor_5/strided_slice/stack_2"
  op: "Const"
  attr {
    key: "dtype"
    value {
      type: DT_INT32
    }
  }
  attr {
    key: "value"
    value {
      tensor {
        dtype: DT_INT32
        tensor_shape {
          dim {
            size: 1
          }
        }
        int_val: 1
      }
    }
  }
}
node {
  name: "BoxPredictor_5/strided_slice/stack_1"
  op: "Const"
  attr {
    key: "dtype"
    value {
      type: DT_INT32
    }
  }
  attr {
    key: "value"
    value {
      tensor {
        dtype: DT_INT32
        tensor_shape {
          dim {
            size: 1
          }
        }
        int_val: 1
      }
    }
  }
}
node {
  name: "BoxPredictor_5/strided_slice/stack"
  op: "Const"
  attr {
    key: "dtype"
    value {
      type: DT_INT32
    }
  }
  attr {
    key: "value"
    value {
      tensor {
        dtype: DT_INT32
        tensor_shape {
          dim {
            size: 1
          }
        }
        int_val: 0
      }
    }
  }
}
node {
  name: "BoxPredictor_5/BoxEncodingPredictor/biases"
  op: "Const"
  attr {
    key: "dtype"
    value {
      type: DT_FLOAT
    }
  }
  attr {
    key: "value"
    value {
      tensor {
        dtype: DT_FLOAT
        tensor_shape {
          dim {
            size: 24
          }
        }
      }
    }
  }
}
node {
  name: "BoxPredictor_5/BoxEncodingPredictor/biases/read"
  op: "Identity"
  input: "BoxPredictor_5/BoxEncodingPredictor/biases"
  attr {
    key: "T"
    value {
      type: DT_FLOAT
    }
  }
  attr {
    key: "_class"
    value {
      list {
        s: "loc:@BoxPredictor_5/BoxEncodingPredictor/biases"
      }
    }
  }
}
node {
  name: "BoxPredictor_5/BoxEncodingPredictor/weights"
  op: "Const"
  attr {
    key: "dtype"
    value {
      type: DT_FLOAT
    }
  }
  attr {
    key: "value"
    value {
      tensor {
        dtype: DT_FLOAT
        tensor_shape {
          dim {
            size: 1
          }
          dim {
            size: 1
          }
          dim {
            size: 128
          }
          dim {
            size: 24
          }
        }
      }
    }
  }
}
node {
  name: "BoxPredictor_5/BoxEncodingPredictor/weights/read"
  op: "Identity"
  input: "BoxPredictor_5/BoxEncodingPredictor/weights"
  attr {
    key: "T"
    value {
      type: DT_FLOAT
    }
  }
  attr {
    key: "_class"
    value {
      list {
        s: "loc:@BoxPredictor_5/BoxEncodingPredictor/weights"
      }
    }
  }
}
node {
  name: "BoxPredictor_5/BoxEncodingPredictor_depthwise/BatchNorm/moving_variance"
  op: "Const"
  attr {
    key: "dtype"
    value {
      type: DT_FLOAT
    }
  }
  attr {
    key: "value"
    value {
      tensor {
        dtype: DT_FLOAT
        tensor_shape {
          dim {
            size: 128
          }
        }
      }
    }
  }
}
node {
  name: "BoxPredictor_5/BoxEncodingPredictor_depthwise/BatchNorm/moving_variance/read"
  op: "Identity"
  input: "BoxPredictor_5/BoxEncodingPredictor_depthwise/BatchNorm/moving_variance"
  attr {
    key: "T"
    value {
      type: DT_FLOAT
    }
  }
  attr {
    key: "_class"
    value {
      list {
        s: "loc:@BoxPredictor_5/BoxEncodingPredictor_depthwise/BatchNorm/moving_variance"
      }
    }
  }
}
node {
  name: "BoxPredictor_5/BoxEncodingPredictor_depthwise/BatchNorm/moving_mean"
  op: "Const"
  attr {
    key: "dtype"
    value {
      type: DT_FLOAT
    }
  }
  attr {
    key: "value"
    value {
      tensor {
        dtype: DT_FLOAT
        tensor_shape {
          dim {
            size: 128
          }
        }
      }
    }
  }
}
node {
  name: "BoxPredictor_5/BoxEncodingPredictor_depthwise/BatchNorm/moving_mean/read"
  op: "Identity"
  input: "BoxPredictor_5/BoxEncodingPredictor_depthwise/BatchNorm/moving_mean"
  attr {
    key: "T"
    value {
      type: DT_FLOAT
    }
  }
  attr {
    key: "_class"
    value {
      list {
        s: "loc:@BoxPredictor_5/BoxEncodingPredictor_depthwise/BatchNorm/moving_mean"
      }
    }
  }
}
node {
  name: "BoxPredictor_5/BoxEncodingPredictor_depthwise/BatchNorm/beta"
  op: "Const"
  attr {
    key: "dtype"
    value {
      type: DT_FLOAT
    }
  }
  attr {
    key: "value"
    value {
      tensor {
        dtype: DT_FLOAT
        tensor_shape {
          dim {
            size: 128
          }
        }
      }
    }
  }
}
node {
  name: "BoxPredictor_5/BoxEncodingPredictor_depthwise/BatchNorm/beta/read"
  op: "Identity"
  input: "BoxPredictor_5/BoxEncodingPredictor_depthwise/BatchNorm/beta"
  attr {
    key: "T"
    value {
      type: DT_FLOAT
    }
  }
  attr {
    key: "_class"
    value {
      list {
        s: "loc:@BoxPredictor_5/BoxEncodingPredictor_depthwise/BatchNorm/beta"
      }
    }
  }
}
node {
  name: "BoxPredictor_5/BoxEncodingPredictor_depthwise/BatchNorm/gamma"
  op: "Const"
  attr {
    key: "dtype"
    value {
      type: DT_FLOAT
    }
  }
  attr {
    key: "value"
    value {
      tensor {
        dtype: DT_FLOAT
        tensor_shape {
          dim {
            size: 128
          }
        }
      }
    }
  }
}
node {
  name: "BoxPredictor_5/BoxEncodingPredictor_depthwise/BatchNorm/gamma/read"
  op: "Identity"
  input: "BoxPredictor_5/BoxEncodingPredictor_depthwise/BatchNorm/gamma"
  attr {
    key: "T"
    value {
      type: DT_FLOAT
    }
  }
  attr {
    key: "_class"
    value {
      list {
        s: "loc:@BoxPredictor_5/BoxEncodingPredictor_depthwise/BatchNorm/gamma"
      }
    }
  }
}
node {
  name: "BoxPredictor_5/BoxEncodingPredictor_depthwise/depthwise_weights"
  op: "Const"
  attr {
    key: "dtype"
    value {
      type: DT_FLOAT
    }
  }
  attr {
    key: "value"
    value {
      tensor {
        dtype: DT_FLOAT
        tensor_shape {
          dim {
            size: 3
          }
          dim {
            size: 3
          }
          dim {
            size: 128
          }
          dim {
            size: 1
          }
        }
      }
    }
  }
}
node {
  name: "BoxPredictor_5/BoxEncodingPredictor_depthwise/depthwise_weights/read"
  op: "Identity"
  input: "BoxPredictor_5/BoxEncodingPredictor_depthwise/depthwise_weights"
  attr {
    key: "T"
    value {
      type: DT_FLOAT
    }
  }
  attr {
    key: "_class"
    value {
      list {
        s: "loc:@BoxPredictor_5/BoxEncodingPredictor_depthwise/depthwise_weights"
      }
    }
  }
}
node {
  name: "BoxPredictor_4/Reshape_1/shape/2"
  op: "Const"
  attr {
    key: "dtype"
    value {
      type: DT_INT32
    }
  }
  attr {
    key: "value"
    value {
      tensor {
        dtype: DT_INT32
        tensor_shape {
        }
        int_val: 5
      }
    }
  }
}
node {
  name: "BoxPredictor_4/Reshape_1/shape/1"
  op: "Const"
  attr {
    key: "dtype"
    value {
      type: DT_INT32
    }
  }
  attr {
    key: "value"
    value {
      tensor {
        dtype: DT_INT32
        tensor_shape {
        }
        int_val: -1
      }
    }
  }
}
node {
  name: "BoxPredictor_4/strided_slice_1/stack_2"
  op: "Const"
  attr {
    key: "dtype"
    value {
      type: DT_INT32
    }
  }
  attr {
    key: "value"
    value {
      tensor {
        dtype: DT_INT32
        tensor_shape {
          dim {
            size: 1
          }
        }
        int_val: 1
      }
    }
  }
}
node {
  name: "BoxPredictor_4/strided_slice_1/stack_1"
  op: "Const"
  attr {
    key: "dtype"
    value {
      type: DT_INT32
    }
  }
  attr {
    key: "value"
    value {
      tensor {
        dtype: DT_INT32
        tensor_shape {
          dim {
            size: 1
          }
        }
        int_val: 1
      }
    }
  }
}
node {
  name: "BoxPredictor_4/strided_slice_1/stack"
  op: "Const"
  attr {
    key: "dtype"
    value {
      type: DT_INT32
    }
  }
  attr {
    key: "value"
    value {
      tensor {
        dtype: DT_INT32
        tensor_shape {
          dim {
            size: 1
          }
        }
        int_val: 0
      }
    }
  }
}
node {
  name: "BoxPredictor_4/ClassPredictor/biases"
  op: "Const"
  attr {
    key: "dtype"
    value {
      type: DT_FLOAT
    }
  }
  attr {
    key: "value"
    value {
      tensor {
        dtype: DT_FLOAT
        tensor_shape {
          dim {
            size: 30
          }
        }
      }
    }
  }
}
node {
  name: "BoxPredictor_4/ClassPredictor/biases/read"
  op: "Identity"
  input: "BoxPredictor_4/ClassPredictor/biases"
  attr {
    key: "T"
    value {
      type: DT_FLOAT
    }
  }
  attr {
    key: "_class"
    value {
      list {
        s: "loc:@BoxPredictor_4/ClassPredictor/biases"
      }
    }
  }
}
node {
  name: "BoxPredictor_4/ClassPredictor/weights"
  op: "Const"
  attr {
    key: "dtype"
    value {
      type: DT_FLOAT
    }
  }
  attr {
    key: "value"
    value {
      tensor {
        dtype: DT_FLOAT
        tensor_shape {
          dim {
            size: 1
          }
          dim {
            size: 1
          }
          dim {
            size: 256
          }
          dim {
            size: 30
          }
        }
      }
    }
  }
}
node {
  name: "BoxPredictor_4/ClassPredictor/weights/read"
  op: "Identity"
  input: "BoxPredictor_4/ClassPredictor/weights"
  attr {
    key: "T"
    value {
      type: DT_FLOAT
    }
  }
  attr {
    key: "_class"
    value {
      list {
        s: "loc:@BoxPredictor_4/ClassPredictor/weights"
      }
    }
  }
}
node {
  name: "BoxPredictor_4/ClassPredictor_depthwise/BatchNorm/moving_variance"
  op: "Const"
  attr {
    key: "dtype"
    value {
      type: DT_FLOAT
    }
  }
  attr {
    key: "value"
    value {
      tensor {
        dtype: DT_FLOAT
        tensor_shape {
          dim {
            size: 256
          }
        }
      }
    }
  }
}
node {
  name: "BoxPredictor_4/ClassPredictor_depthwise/BatchNorm/moving_variance/read"
  op: "Identity"
  input: "BoxPredictor_4/ClassPredictor_depthwise/BatchNorm/moving_variance"
  attr {
    key: "T"
    value {
      type: DT_FLOAT
    }
  }
  attr {
    key: "_class"
    value {
      list {
        s: "loc:@BoxPredictor_4/ClassPredictor_depthwise/BatchNorm/moving_variance"
      }
    }
  }
}
node {
  name: "BoxPredictor_4/ClassPredictor_depthwise/BatchNorm/moving_mean"
  op: "Const"
  attr {
    key: "dtype"
    value {
      type: DT_FLOAT
    }
  }
  attr {
    key: "value"
    value {
      tensor {
        dtype: DT_FLOAT
        tensor_shape {
          dim {
            size: 256
          }
        }
      }
    }
  }
}
node {
  name: "BoxPredictor_4/ClassPredictor_depthwise/BatchNorm/moving_mean/read"
  op: "Identity"
  input: "BoxPredictor_4/ClassPredictor_depthwise/BatchNorm/moving_mean"
  attr {
    key: "T"
    value {
      type: DT_FLOAT
    }
  }
  attr {
    key: "_class"
    value {
      list {
        s: "loc:@BoxPredictor_4/ClassPredictor_depthwise/BatchNorm/moving_mean"
      }
    }
  }
}
node {
  name: "BoxPredictor_4/ClassPredictor_depthwise/BatchNorm/beta"
  op: "Const"
  attr {
    key: "dtype"
    value {
      type: DT_FLOAT
    }
  }
  attr {
    key: "value"
    value {
      tensor {
        dtype: DT_FLOAT
        tensor_shape {
          dim {
            size: 256
          }
        }
      }
    }
  }
}
node {
  name: "BoxPredictor_4/ClassPredictor_depthwise/BatchNorm/beta/read"
  op: "Identity"
  input: "BoxPredictor_4/ClassPredictor_depthwise/BatchNorm/beta"
  attr {
    key: "T"
    value {
      type: DT_FLOAT
    }
  }
  attr {
    key: "_class"
    value {
      list {
        s: "loc:@BoxPredictor_4/ClassPredictor_depthwise/BatchNorm/beta"
      }
    }
  }
}
node {
  name: "BoxPredictor_4/ClassPredictor_depthwise/BatchNorm/gamma"
  op: "Const"
  attr {
    key: "dtype"
    value {
      type: DT_FLOAT
    }
  }
  attr {
    key: "value"
    value {
      tensor {
        dtype: DT_FLOAT
        tensor_shape {
          dim {
            size: 256
          }
        }
      }
    }
  }
}
node {
  name: "BoxPredictor_4/ClassPredictor_depthwise/BatchNorm/gamma/read"
  op: "Identity"
  input: "BoxPredictor_4/ClassPredictor_depthwise/BatchNorm/gamma"
  attr {
    key: "T"
    value {
      type: DT_FLOAT
    }
  }
  attr {
    key: "_class"
    value {
      list {
        s: "loc:@BoxPredictor_4/ClassPredictor_depthwise/BatchNorm/gamma"
      }
    }
  }
}
node {
  name: "BoxPredictor_4/ClassPredictor_depthwise/depthwise_weights"
  op: "Const"
  attr {
    key: "dtype"
    value {
      type: DT_FLOAT
    }
  }
  attr {
    key: "value"
    value {
      tensor {
        dtype: DT_FLOAT
        tensor_shape {
          dim {
            size: 3
          }
          dim {
            size: 3
          }
          dim {
            size: 256
          }
          dim {
            size: 1
          }
        }
      }
    }
  }
}
node {
  name: "BoxPredictor_4/ClassPredictor_depthwise/depthwise_weights/read"
  op: "Identity"
  input: "BoxPredictor_4/ClassPredictor_depthwise/depthwise_weights"
  attr {
    key: "T"
    value {
      type: DT_FLOAT
    }
  }
  attr {
    key: "_class"
    value {
      list {
        s: "loc:@BoxPredictor_4/ClassPredictor_depthwise/depthwise_weights"
      }
    }
  }
}
node {
  name: "BoxPredictor_4/Reshape/shape/3"
  op: "Const"
  attr {
    key: "dtype"
    value {
      type: DT_INT32
    }
  }
  attr {
    key: "value"
    value {
      tensor {
        dtype: DT_INT32
        tensor_shape {
        }
        int_val: 4
      }
    }
  }
}
node {
  name: "BoxPredictor_4/Reshape/shape/2"
  op: "Const"
  attr {
    key: "dtype"
    value {
      type: DT_INT32
    }
  }
  attr {
    key: "value"
    value {
      tensor {
        dtype: DT_INT32
        tensor_shape {
        }
        int_val: 1
      }
    }
  }
}
node {
  name: "BoxPredictor_4/Reshape/shape/1"
  op: "Const"
  attr {
    key: "dtype"
    value {
      type: DT_INT32
    }
  }
  attr {
    key: "value"
    value {
      tensor {
        dtype: DT_INT32
        tensor_shape {
        }
        int_val: -1
      }
    }
  }
}
node {
  name: "BoxPredictor_4/strided_slice/stack_2"
  op: "Const"
  attr {
    key: "dtype"
    value {
      type: DT_INT32
    }
  }
  attr {
    key: "value"
    value {
      tensor {
        dtype: DT_INT32
        tensor_shape {
          dim {
            size: 1
          }
        }
        int_val: 1
      }
    }
  }
}
node {
  name: "BoxPredictor_4/strided_slice/stack_1"
  op: "Const"
  attr {
    key: "dtype"
    value {
      type: DT_INT32
    }
  }
  attr {
    key: "value"
    value {
      tensor {
        dtype: DT_INT32
        tensor_shape {
          dim {
            size: 1
          }
        }
        int_val: 1
      }
    }
  }
}
node {
  name: "BoxPredictor_4/strided_slice/stack"
  op: "Const"
  attr {
    key: "dtype"
    value {
      type: DT_INT32
    }
  }
  attr {
    key: "value"
    value {
      tensor {
        dtype: DT_INT32
        tensor_shape {
          dim {
            size: 1
          }
        }
        int_val: 0
      }
    }
  }
}
node {
  name: "BoxPredictor_4/BoxEncodingPredictor/biases"
  op: "Const"
  attr {
    key: "dtype"
    value {
      type: DT_FLOAT
    }
  }
  attr {
    key: "value"
    value {
      tensor {
        dtype: DT_FLOAT
        tensor_shape {
          dim {
            size: 24
          }
        }
      }
    }
  }
}
node {
  name: "BoxPredictor_4/BoxEncodingPredictor/biases/read"
  op: "Identity"
  input: "BoxPredictor_4/BoxEncodingPredictor/biases"
  attr {
    key: "T"
    value {
      type: DT_FLOAT
    }
  }
  attr {
    key: "_class"
    value {
      list {
        s: "loc:@BoxPredictor_4/BoxEncodingPredictor/biases"
      }
    }
  }
}
node {
  name: "BoxPredictor_4/BoxEncodingPredictor/weights"
  op: "Const"
  attr {
    key: "dtype"
    value {
      type: DT_FLOAT
    }
  }
  attr {
    key: "value"
    value {
      tensor {
        dtype: DT_FLOAT
        tensor_shape {
          dim {
            size: 1
          }
          dim {
            size: 1
          }
          dim {
            size: 256
          }
          dim {
            size: 24
          }
        }
      }
    }
  }
}
node {
  name: "BoxPredictor_4/BoxEncodingPredictor/weights/read"
  op: "Identity"
  input: "BoxPredictor_4/BoxEncodingPredictor/weights"
  attr {
    key: "T"
    value {
      type: DT_FLOAT
    }
  }
  attr {
    key: "_class"
    value {
      list {
        s: "loc:@BoxPredictor_4/BoxEncodingPredictor/weights"
      }
    }
  }
}
node {
  name: "BoxPredictor_4/BoxEncodingPredictor_depthwise/BatchNorm/moving_variance"
  op: "Const"
  attr {
    key: "dtype"
    value {
      type: DT_FLOAT
    }
  }
  attr {
    key: "value"
    value {
      tensor {
        dtype: DT_FLOAT
        tensor_shape {
          dim {
            size: 256
          }
        }
      }
    }
  }
}
node {
  name: "BoxPredictor_4/BoxEncodingPredictor_depthwise/BatchNorm/moving_variance/read"
  op: "Identity"
  input: "BoxPredictor_4/BoxEncodingPredictor_depthwise/BatchNorm/moving_variance"
  attr {
    key: "T"
    value {
      type: DT_FLOAT
    }
  }
  attr {
    key: "_class"
    value {
      list {
        s: "loc:@BoxPredictor_4/BoxEncodingPredictor_depthwise/BatchNorm/moving_variance"
      }
    }
  }
}
node {
  name: "BoxPredictor_4/BoxEncodingPredictor_depthwise/BatchNorm/moving_mean"
  op: "Const"
  attr {
    key: "dtype"
    value {
      type: DT_FLOAT
    }
  }
  attr {
    key: "value"
    value {
      tensor {
        dtype: DT_FLOAT
        tensor_shape {
          dim {
            size: 256
          }
        }
      }
    }
  }
}
node {
  name: "BoxPredictor_4/BoxEncodingPredictor_depthwise/BatchNorm/moving_mean/read"
  op: "Identity"
  input: "BoxPredictor_4/BoxEncodingPredictor_depthwise/BatchNorm/moving_mean"
  attr {
    key: "T"
    value {
      type: DT_FLOAT
    }
  }
  attr {
    key: "_class"
    value {
      list {
        s: "loc:@BoxPredictor_4/BoxEncodingPredictor_depthwise/BatchNorm/moving_mean"
      }
    }
  }
}
node {
  name: "BoxPredictor_4/BoxEncodingPredictor_depthwise/BatchNorm/beta"
  op: "Const"
  attr {
    key: "dtype"
    value {
      type: DT_FLOAT
    }
  }
  attr {
    key: "value"
    value {
      tensor {
        dtype: DT_FLOAT
        tensor_shape {
          dim {
            size: 256
          }
        }
      }
    }
  }
}
node {
  name: "BoxPredictor_4/BoxEncodingPredictor_depthwise/BatchNorm/beta/read"
  op: "Identity"
  input: "BoxPredictor_4/BoxEncodingPredictor_depthwise/BatchNorm/beta"
  attr {
    key: "T"
    value {
      type: DT_FLOAT
    }
  }
  attr {
    key: "_class"
    value {
      list {
        s: "loc:@BoxPredictor_4/BoxEncodingPredictor_depthwise/BatchNorm/beta"
      }
    }
  }
}
node {
  name: "BoxPredictor_4/BoxEncodingPredictor_depthwise/BatchNorm/gamma"
  op: "Const"
  attr {
    key: "dtype"
    value {
      type: DT_FLOAT
    }
  }
  attr {
    key: "value"
    value {
      tensor {
        dtype: DT_FLOAT
        tensor_shape {
          dim {
            size: 256
          }
        }
      }
    }
  }
}
node {
  name: "BoxPredictor_4/BoxEncodingPredictor_depthwise/BatchNorm/gamma/read"
  op: "Identity"
  input: "BoxPredictor_4/BoxEncodingPredictor_depthwise/BatchNorm/gamma"
  attr {
    key: "T"
    value {
      type: DT_FLOAT
    }
  }
  attr {
    key: "_class"
    value {
      list {
        s: "loc:@BoxPredictor_4/BoxEncodingPredictor_depthwise/BatchNorm/gamma"
      }
    }
  }
}
node {
  name: "BoxPredictor_4/BoxEncodingPredictor_depthwise/depthwise_weights"
  op: "Const"
  attr {
    key: "dtype"
    value {
      type: DT_FLOAT
    }
  }
  attr {
    key: "value"
    value {
      tensor {
        dtype: DT_FLOAT
        tensor_shape {
          dim {
            size: 3
          }
          dim {
            size: 3
          }
          dim {
            size: 256
          }
          dim {
            size: 1
          }
        }
      }
    }
  }
}
node {
  name: "BoxPredictor_4/BoxEncodingPredictor_depthwise/depthwise_weights/read"
  op: "Identity"
  input: "BoxPredictor_4/BoxEncodingPredictor_depthwise/depthwise_weights"
  attr {
    key: "T"
    value {
      type: DT_FLOAT
    }
  }
  attr {
    key: "_class"
    value {
      list {
        s: "loc:@BoxPredictor_4/BoxEncodingPredictor_depthwise/depthwise_weights"
      }
    }
  }
}
node {
  name: "BoxPredictor_3/Reshape_1/shape/2"
  op: "Const"
  attr {
    key: "dtype"
    value {
      type: DT_INT32
    }
  }
  attr {
    key: "value"
    value {
      tensor {
        dtype: DT_INT32
        tensor_shape {
        }
        int_val: 5
      }
    }
  }
}
node {
  name: "BoxPredictor_3/Reshape_1/shape/1"
  op: "Const"
  attr {
    key: "dtype"
    value {
      type: DT_INT32
    }
  }
  attr {
    key: "value"
    value {
      tensor {
        dtype: DT_INT32
        tensor_shape {
        }
        int_val: -1
      }
    }
  }
}
node {
  name: "BoxPredictor_3/strided_slice_1/stack_2"
  op: "Const"
  attr {
    key: "dtype"
    value {
      type: DT_INT32
    }
  }
  attr {
    key: "value"
    value {
      tensor {
        dtype: DT_INT32
        tensor_shape {
          dim {
            size: 1
          }
        }
        int_val: 1
      }
    }
  }
}
node {
  name: "BoxPredictor_3/strided_slice_1/stack_1"
  op: "Const"
  attr {
    key: "dtype"
    value {
      type: DT_INT32
    }
  }
  attr {
    key: "value"
    value {
      tensor {
        dtype: DT_INT32
        tensor_shape {
          dim {
            size: 1
          }
        }
        int_val: 1
      }
    }
  }
}
node {
  name: "BoxPredictor_3/strided_slice_1/stack"
  op: "Const"
  attr {
    key: "dtype"
    value {
      type: DT_INT32
    }
  }
  attr {
    key: "value"
    value {
      tensor {
        dtype: DT_INT32
        tensor_shape {
          dim {
            size: 1
          }
        }
        int_val: 0
      }
    }
  }
}
node {
  name: "BoxPredictor_3/ClassPredictor/biases"
  op: "Const"
  attr {
    key: "dtype"
    value {
      type: DT_FLOAT
    }
  }
  attr {
    key: "value"
    value {
      tensor {
        dtype: DT_FLOAT
        tensor_shape {
          dim {
            size: 30
          }
        }
      }
    }
  }
}
node {
  name: "BoxPredictor_3/ClassPredictor/biases/read"
  op: "Identity"
  input: "BoxPredictor_3/ClassPredictor/biases"
  attr {
    key: "T"
    value {
      type: DT_FLOAT
    }
  }
  attr {
    key: "_class"
    value {
      list {
        s: "loc:@BoxPredictor_3/ClassPredictor/biases"
      }
    }
  }
}
node {
  name: "BoxPredictor_3/ClassPredictor/weights"
  op: "Const"
  attr {
    key: "dtype"
    value {
      type: DT_FLOAT
    }
  }
  attr {
    key: "value"
    value {
      tensor {
        dtype: DT_FLOAT
        tensor_shape {
          dim {
            size: 1
          }
          dim {
            size: 1
          }
          dim {
            size: 256
          }
          dim {
            size: 30
          }
        }
      }
    }
  }
}
node {
  name: "BoxPredictor_3/ClassPredictor/weights/read"
  op: "Identity"
  input: "BoxPredictor_3/ClassPredictor/weights"
  attr {
    key: "T"
    value {
      type: DT_FLOAT
    }
  }
  attr {
    key: "_class"
    value {
      list {
        s: "loc:@BoxPredictor_3/ClassPredictor/weights"
      }
    }
  }
}
node {
  name: "BoxPredictor_3/ClassPredictor_depthwise/BatchNorm/moving_variance"
  op: "Const"
  attr {
    key: "dtype"
    value {
      type: DT_FLOAT
    }
  }
  attr {
    key: "value"
    value {
      tensor {
        dtype: DT_FLOAT
        tensor_shape {
          dim {
            size: 256
          }
        }
      }
    }
  }
}
node {
  name: "BoxPredictor_3/ClassPredictor_depthwise/BatchNorm/moving_variance/read"
  op: "Identity"
  input: "BoxPredictor_3/ClassPredictor_depthwise/BatchNorm/moving_variance"
  attr {
    key: "T"
    value {
      type: DT_FLOAT
    }
  }
  attr {
    key: "_class"
    value {
      list {
        s: "loc:@BoxPredictor_3/ClassPredictor_depthwise/BatchNorm/moving_variance"
      }
    }
  }
}
node {
  name: "BoxPredictor_3/ClassPredictor_depthwise/BatchNorm/moving_mean"
  op: "Const"
  attr {
    key: "dtype"
    value {
      type: DT_FLOAT
    }
  }
  attr {
    key: "value"
    value {
      tensor {
        dtype: DT_FLOAT
        tensor_shape {
          dim {
            size: 256
          }
        }
      }
    }
  }
}
node {
  name: "BoxPredictor_3/ClassPredictor_depthwise/BatchNorm/moving_mean/read"
  op: "Identity"
  input: "BoxPredictor_3/ClassPredictor_depthwise/BatchNorm/moving_mean"
  attr {
    key: "T"
    value {
      type: DT_FLOAT
    }
  }
  attr {
    key: "_class"
    value {
      list {
        s: "loc:@BoxPredictor_3/ClassPredictor_depthwise/BatchNorm/moving_mean"
      }
    }
  }
}
node {
  name: "BoxPredictor_3/ClassPredictor_depthwise/BatchNorm/beta"
  op: "Const"
  attr {
    key: "dtype"
    value {
      type: DT_FLOAT
    }
  }
  attr {
    key: "value"
    value {
      tensor {
        dtype: DT_FLOAT
        tensor_shape {
          dim {
            size: 256
          }
        }
      }
    }
  }
}
node {
  name: "BoxPredictor_3/ClassPredictor_depthwise/BatchNorm/beta/read"
  op: "Identity"
  input: "BoxPredictor_3/ClassPredictor_depthwise/BatchNorm/beta"
  attr {
    key: "T"
    value {
      type: DT_FLOAT
    }
  }
  attr {
    key: "_class"
    value {
      list {
        s: "loc:@BoxPredictor_3/ClassPredictor_depthwise/BatchNorm/beta"
      }
    }
  }
}
node {
  name: "BoxPredictor_3/ClassPredictor_depthwise/BatchNorm/gamma"
  op: "Const"
  attr {
    key: "dtype"
    value {
      type: DT_FLOAT
    }
  }
  attr {
    key: "value"
    value {
      tensor {
        dtype: DT_FLOAT
        tensor_shape {
          dim {
            size: 256
          }
        }
      }
    }
  }
}
node {
  name: "BoxPredictor_3/ClassPredictor_depthwise/BatchNorm/gamma/read"
  op: "Identity"
  input: "BoxPredictor_3/ClassPredictor_depthwise/BatchNorm/gamma"
  attr {
    key: "T"
    value {
      type: DT_FLOAT
    }
  }
  attr {
    key: "_class"
    value {
      list {
        s: "loc:@BoxPredictor_3/ClassPredictor_depthwise/BatchNorm/gamma"
      }
    }
  }
}
node {
  name: "BoxPredictor_3/ClassPredictor_depthwise/depthwise_weights"
  op: "Const"
  attr {
    key: "dtype"
    value {
      type: DT_FLOAT
    }
  }
  attr {
    key: "value"
    value {
      tensor {
        dtype: DT_FLOAT
        tensor_shape {
          dim {
            size: 3
          }
          dim {
            size: 3
          }
          dim {
            size: 256
          }
          dim {
            size: 1
          }
        }
      }
    }
  }
}
node {
  name: "BoxPredictor_3/ClassPredictor_depthwise/depthwise_weights/read"
  op: "Identity"
  input: "BoxPredictor_3/ClassPredictor_depthwise/depthwise_weights"
  attr {
    key: "T"
    value {
      type: DT_FLOAT
    }
  }
  attr {
    key: "_class"
    value {
      list {
        s: "loc:@BoxPredictor_3/ClassPredictor_depthwise/depthwise_weights"
      }
    }
  }
}
node {
  name: "BoxPredictor_3/Reshape/shape/3"
  op: "Const"
  attr {
    key: "dtype"
    value {
      type: DT_INT32
    }
  }
  attr {
    key: "value"
    value {
      tensor {
        dtype: DT_INT32
        tensor_shape {
        }
        int_val: 4
      }
    }
  }
}
node {
  name: "BoxPredictor_3/Reshape/shape/2"
  op: "Const"
  attr {
    key: "dtype"
    value {
      type: DT_INT32
    }
  }
  attr {
    key: "value"
    value {
      tensor {
        dtype: DT_INT32
        tensor_shape {
        }
        int_val: 1
      }
    }
  }
}
node {
  name: "BoxPredictor_3/Reshape/shape/1"
  op: "Const"
  attr {
    key: "dtype"
    value {
      type: DT_INT32
    }
  }
  attr {
    key: "value"
    value {
      tensor {
        dtype: DT_INT32
        tensor_shape {
        }
        int_val: -1
      }
    }
  }
}
node {
  name: "BoxPredictor_3/strided_slice/stack_2"
  op: "Const"
  attr {
    key: "dtype"
    value {
      type: DT_INT32
    }
  }
  attr {
    key: "value"
    value {
      tensor {
        dtype: DT_INT32
        tensor_shape {
          dim {
            size: 1
          }
        }
        int_val: 1
      }
    }
  }
}
node {
  name: "BoxPredictor_3/strided_slice/stack_1"
  op: "Const"
  attr {
    key: "dtype"
    value {
      type: DT_INT32
    }
  }
  attr {
    key: "value"
    value {
      tensor {
        dtype: DT_INT32
        tensor_shape {
          dim {
            size: 1
          }
        }
        int_val: 1
      }
    }
  }
}
node {
  name: "BoxPredictor_3/strided_slice/stack"
  op: "Const"
  attr {
    key: "dtype"
    value {
      type: DT_INT32
    }
  }
  attr {
    key: "value"
    value {
      tensor {
        dtype: DT_INT32
        tensor_shape {
          dim {
            size: 1
          }
        }
        int_val: 0
      }
    }
  }
}
node {
  name: "BoxPredictor_3/BoxEncodingPredictor/biases"
  op: "Const"
  attr {
    key: "dtype"
    value {
      type: DT_FLOAT
    }
  }
  attr {
    key: "value"
    value {
      tensor {
        dtype: DT_FLOAT
        tensor_shape {
          dim {
            size: 24
          }
        }
      }
    }
  }
}
node {
  name: "BoxPredictor_3/BoxEncodingPredictor/biases/read"
  op: "Identity"
  input: "BoxPredictor_3/BoxEncodingPredictor/biases"
  attr {
    key: "T"
    value {
      type: DT_FLOAT
    }
  }
  attr {
    key: "_class"
    value {
      list {
        s: "loc:@BoxPredictor_3/BoxEncodingPredictor/biases"
      }
    }
  }
}
node {
  name: "BoxPredictor_3/BoxEncodingPredictor/weights"
  op: "Const"
  attr {
    key: "dtype"
    value {
      type: DT_FLOAT
    }
  }
  attr {
    key: "value"
    value {
      tensor {
        dtype: DT_FLOAT
        tensor_shape {
          dim {
            size: 1
          }
          dim {
            size: 1
          }
          dim {
            size: 256
          }
          dim {
            size: 24
          }
        }
      }
    }
  }
}
node {
  name: "BoxPredictor_3/BoxEncodingPredictor/weights/read"
  op: "Identity"
  input: "BoxPredictor_3/BoxEncodingPredictor/weights"
  attr {
    key: "T"
    value {
      type: DT_FLOAT
    }
  }
  attr {
    key: "_class"
    value {
      list {
        s: "loc:@BoxPredictor_3/BoxEncodingPredictor/weights"
      }
    }
  }
}
node {
  name: "BoxPredictor_3/BoxEncodingPredictor_depthwise/BatchNorm/moving_variance"
  op: "Const"
  attr {
    key: "dtype"
    value {
      type: DT_FLOAT
    }
  }
  attr {
    key: "value"
    value {
      tensor {
        dtype: DT_FLOAT
        tensor_shape {
          dim {
            size: 256
          }
        }
      }
    }
  }
}
node {
  name: "BoxPredictor_3/BoxEncodingPredictor_depthwise/BatchNorm/moving_variance/read"
  op: "Identity"
  input: "BoxPredictor_3/BoxEncodingPredictor_depthwise/BatchNorm/moving_variance"
  attr {
    key: "T"
    value {
      type: DT_FLOAT
    }
  }
  attr {
    key: "_class"
    value {
      list {
        s: "loc:@BoxPredictor_3/BoxEncodingPredictor_depthwise/BatchNorm/moving_variance"
      }
    }
  }
}
node {
  name: "BoxPredictor_3/BoxEncodingPredictor_depthwise/BatchNorm/moving_mean"
  op: "Const"
  attr {
    key: "dtype"
    value {
      type: DT_FLOAT
    }
  }
  attr {
    key: "value"
    value {
      tensor {
        dtype: DT_FLOAT
        tensor_shape {
          dim {
            size: 256
          }
        }
      }
    }
  }
}
node {
  name: "BoxPredictor_3/BoxEncodingPredictor_depthwise/BatchNorm/moving_mean/read"
  op: "Identity"
  input: "BoxPredictor_3/BoxEncodingPredictor_depthwise/BatchNorm/moving_mean"
  attr {
    key: "T"
    value {
      type: DT_FLOAT
    }
  }
  attr {
    key: "_class"
    value {
      list {
        s: "loc:@BoxPredictor_3/BoxEncodingPredictor_depthwise/BatchNorm/moving_mean"
      }
    }
  }
}
node {
  name: "BoxPredictor_3/BoxEncodingPredictor_depthwise/BatchNorm/beta"
  op: "Const"
  attr {
    key: "dtype"
    value {
      type: DT_FLOAT
    }
  }
  attr {
    key: "value"
    value {
      tensor {
        dtype: DT_FLOAT
        tensor_shape {
          dim {
            size: 256
          }
        }
      }
    }
  }
}
node {
  name: "BoxPredictor_3/BoxEncodingPredictor_depthwise/BatchNorm/beta/read"
  op: "Identity"
  input: "BoxPredictor_3/BoxEncodingPredictor_depthwise/BatchNorm/beta"
  attr {
    key: "T"
    value {
      type: DT_FLOAT
    }
  }
  attr {
    key: "_class"
    value {
      list {
        s: "loc:@BoxPredictor_3/BoxEncodingPredictor_depthwise/BatchNorm/beta"
      }
    }
  }
}
node {
  name: "BoxPredictor_3/BoxEncodingPredictor_depthwise/BatchNorm/gamma"
  op: "Const"
  attr {
    key: "dtype"
    value {
      type: DT_FLOAT
    }
  }
  attr {
    key: "value"
    value {
      tensor {
        dtype: DT_FLOAT
        tensor_shape {
          dim {
            size: 256
          }
        }
      }
    }
  }
}
node {
  name: "BoxPredictor_3/BoxEncodingPredictor_depthwise/BatchNorm/gamma/read"
  op: "Identity"
  input: "BoxPredictor_3/BoxEncodingPredictor_depthwise/BatchNorm/gamma"
  attr {
    key: "T"
    value {
      type: DT_FLOAT
    }
  }
  attr {
    key: "_class"
    value {
      list {
        s: "loc:@BoxPredictor_3/BoxEncodingPredictor_depthwise/BatchNorm/gamma"
      }
    }
  }
}
node {
  name: "BoxPredictor_3/BoxEncodingPredictor_depthwise/depthwise_weights"
  op: "Const"
  attr {
    key: "dtype"
    value {
      type: DT_FLOAT
    }
  }
  attr {
    key: "value"
    value {
      tensor {
        dtype: DT_FLOAT
        tensor_shape {
          dim {
            size: 3
          }
          dim {
            size: 3
          }
          dim {
            size: 256
          }
          dim {
            size: 1
          }
        }
      }
    }
  }
}
node {
  name: "BoxPredictor_3/BoxEncodingPredictor_depthwise/depthwise_weights/read"
  op: "Identity"
  input: "BoxPredictor_3/BoxEncodingPredictor_depthwise/depthwise_weights"
  attr {
    key: "T"
    value {
      type: DT_FLOAT
    }
  }
  attr {
    key: "_class"
    value {
      list {
        s: "loc:@BoxPredictor_3/BoxEncodingPredictor_depthwise/depthwise_weights"
      }
    }
  }
}
node {
  name: "BoxPredictor_2/Reshape_1/shape/2"
  op: "Const"
  attr {
    key: "dtype"
    value {
      type: DT_INT32
    }
  }
  attr {
    key: "value"
    value {
      tensor {
        dtype: DT_INT32
        tensor_shape {
        }
        int_val: 5
      }
    }
  }
}
node {
  name: "BoxPredictor_2/Reshape_1/shape/1"
  op: "Const"
  attr {
    key: "dtype"
    value {
      type: DT_INT32
    }
  }
  attr {
    key: "value"
    value {
      tensor {
        dtype: DT_INT32
        tensor_shape {
        }
        int_val: -1
      }
    }
  }
}
node {
  name: "BoxPredictor_2/strided_slice_1/stack_2"
  op: "Const"
  attr {
    key: "dtype"
    value {
      type: DT_INT32
    }
  }
  attr {
    key: "value"
    value {
      tensor {
        dtype: DT_INT32
        tensor_shape {
          dim {
            size: 1
          }
        }
        int_val: 1
      }
    }
  }
}
node {
  name: "BoxPredictor_2/strided_slice_1/stack_1"
  op: "Const"
  attr {
    key: "dtype"
    value {
      type: DT_INT32
    }
  }
  attr {
    key: "value"
    value {
      tensor {
        dtype: DT_INT32
        tensor_shape {
          dim {
            size: 1
          }
        }
        int_val: 1
      }
    }
  }
}
node {
  name: "BoxPredictor_2/strided_slice_1/stack"
  op: "Const"
  attr {
    key: "dtype"
    value {
      type: DT_INT32
    }
  }
  attr {
    key: "value"
    value {
      tensor {
        dtype: DT_INT32
        tensor_shape {
          dim {
            size: 1
          }
        }
        int_val: 0
      }
    }
  }
}
node {
  name: "BoxPredictor_2/ClassPredictor/biases"
  op: "Const"
  attr {
    key: "dtype"
    value {
      type: DT_FLOAT
    }
  }
  attr {
    key: "value"
    value {
      tensor {
        dtype: DT_FLOAT
        tensor_shape {
          dim {
            size: 30
          }
        }
      }
    }
  }
}
node {
  name: "BoxPredictor_2/ClassPredictor/biases/read"
  op: "Identity"
  input: "BoxPredictor_2/ClassPredictor/biases"
  attr {
    key: "T"
    value {
      type: DT_FLOAT
    }
  }
  attr {
    key: "_class"
    value {
      list {
        s: "loc:@BoxPredictor_2/ClassPredictor/biases"
      }
    }
  }
}
node {
  name: "BoxPredictor_2/ClassPredictor/weights"
  op: "Const"
  attr {
    key: "dtype"
    value {
      type: DT_FLOAT
    }
  }
  attr {
    key: "value"
    value {
      tensor {
        dtype: DT_FLOAT
        tensor_shape {
          dim {
            size: 1
          }
          dim {
            size: 1
          }
          dim {
            size: 512
          }
          dim {
            size: 30
          }
        }
      }
    }
  }
}
node {
  name: "BoxPredictor_2/ClassPredictor/weights/read"
  op: "Identity"
  input: "BoxPredictor_2/ClassPredictor/weights"
  attr {
    key: "T"
    value {
      type: DT_FLOAT
    }
  }
  attr {
    key: "_class"
    value {
      list {
        s: "loc:@BoxPredictor_2/ClassPredictor/weights"
      }
    }
  }
}
node {
  name: "BoxPredictor_2/ClassPredictor_depthwise/BatchNorm/moving_variance"
  op: "Const"
  attr {
    key: "dtype"
    value {
      type: DT_FLOAT
    }
  }
  attr {
    key: "value"
    value {
      tensor {
        dtype: DT_FLOAT
        tensor_shape {
          dim {
            size: 512
          }
        }
      }
    }
  }
}
node {
  name: "BoxPredictor_2/ClassPredictor_depthwise/BatchNorm/moving_variance/read"
  op: "Identity"
  input: "BoxPredictor_2/ClassPredictor_depthwise/BatchNorm/moving_variance"
  attr {
    key: "T"
    value {
      type: DT_FLOAT
    }
  }
  attr {
    key: "_class"
    value {
      list {
        s: "loc:@BoxPredictor_2/ClassPredictor_depthwise/BatchNorm/moving_variance"
      }
    }
  }
}
node {
  name: "BoxPredictor_2/ClassPredictor_depthwise/BatchNorm/moving_mean"
  op: "Const"
  attr {
    key: "dtype"
    value {
      type: DT_FLOAT
    }
  }
  attr {
    key: "value"
    value {
      tensor {
        dtype: DT_FLOAT
        tensor_shape {
          dim {
            size: 512
          }
        }
      }
    }
  }
}
node {
  name: "BoxPredictor_2/ClassPredictor_depthwise/BatchNorm/moving_mean/read"
  op: "Identity"
  input: "BoxPredictor_2/ClassPredictor_depthwise/BatchNorm/moving_mean"
  attr {
    key: "T"
    value {
      type: DT_FLOAT
    }
  }
  attr {
    key: "_class"
    value {
      list {
        s: "loc:@BoxPredictor_2/ClassPredictor_depthwise/BatchNorm/moving_mean"
      }
    }
  }
}
node {
  name: "BoxPredictor_2/ClassPredictor_depthwise/BatchNorm/beta"
  op: "Const"
  attr {
    key: "dtype"
    value {
      type: DT_FLOAT
    }
  }
  attr {
    key: "value"
    value {
      tensor {
        dtype: DT_FLOAT
        tensor_shape {
          dim {
            size: 512
          }
        }
      }
    }
  }
}
node {
  name: "BoxPredictor_2/ClassPredictor_depthwise/BatchNorm/beta/read"
  op: "Identity"
  input: "BoxPredictor_2/ClassPredictor_depthwise/BatchNorm/beta"
  attr {
    key: "T"
    value {
      type: DT_FLOAT
    }
  }
  attr {
    key: "_class"
    value {
      list {
        s: "loc:@BoxPredictor_2/ClassPredictor_depthwise/BatchNorm/beta"
      }
    }
  }
}
node {
  name: "BoxPredictor_2/ClassPredictor_depthwise/BatchNorm/gamma"
  op: "Const"
  attr {
    key: "dtype"
    value {
      type: DT_FLOAT
    }
  }
  attr {
    key: "value"
    value {
      tensor {
        dtype: DT_FLOAT
        tensor_shape {
          dim {
            size: 512
          }
        }
      }
    }
  }
}
node {
  name: "BoxPredictor_2/ClassPredictor_depthwise/BatchNorm/gamma/read"
  op: "Identity"
  input: "BoxPredictor_2/ClassPredictor_depthwise/BatchNorm/gamma"
  attr {
    key: "T"
    value {
      type: DT_FLOAT
    }
  }
  attr {
    key: "_class"
    value {
      list {
        s: "loc:@BoxPredictor_2/ClassPredictor_depthwise/BatchNorm/gamma"
      }
    }
  }
}
node {
  name: "BoxPredictor_2/ClassPredictor_depthwise/depthwise_weights"
  op: "Const"
  attr {
    key: "dtype"
    value {
      type: DT_FLOAT
    }
  }
  attr {
    key: "value"
    value {
      tensor {
        dtype: DT_FLOAT
        tensor_shape {
          dim {
            size: 3
          }
          dim {
            size: 3
          }
          dim {
            size: 512
          }
          dim {
            size: 1
          }
        }
      }
    }
  }
}
node {
  name: "BoxPredictor_2/ClassPredictor_depthwise/depthwise_weights/read"
  op: "Identity"
  input: "BoxPredictor_2/ClassPredictor_depthwise/depthwise_weights"
  attr {
    key: "T"
    value {
      type: DT_FLOAT
    }
  }
  attr {
    key: "_class"
    value {
      list {
        s: "loc:@BoxPredictor_2/ClassPredictor_depthwise/depthwise_weights"
      }
    }
  }
}
node {
  name: "BoxPredictor_2/Reshape/shape/3"
  op: "Const"
  attr {
    key: "dtype"
    value {
      type: DT_INT32
    }
  }
  attr {
    key: "value"
    value {
      tensor {
        dtype: DT_INT32
        tensor_shape {
        }
        int_val: 4
      }
    }
  }
}
node {
  name: "BoxPredictor_2/Reshape/shape/2"
  op: "Const"
  attr {
    key: "dtype"
    value {
      type: DT_INT32
    }
  }
  attr {
    key: "value"
    value {
      tensor {
        dtype: DT_INT32
        tensor_shape {
        }
        int_val: 1
      }
    }
  }
}
node {
  name: "BoxPredictor_2/Reshape/shape/1"
  op: "Const"
  attr {
    key: "dtype"
    value {
      type: DT_INT32
    }
  }
  attr {
    key: "value"
    value {
      tensor {
        dtype: DT_INT32
        tensor_shape {
        }
        int_val: -1
      }
    }
  }
}
node {
  name: "BoxPredictor_2/strided_slice/stack_2"
  op: "Const"
  attr {
    key: "dtype"
    value {
      type: DT_INT32
    }
  }
  attr {
    key: "value"
    value {
      tensor {
        dtype: DT_INT32
        tensor_shape {
          dim {
            size: 1
          }
        }
        int_val: 1
      }
    }
  }
}
node {
  name: "BoxPredictor_2/strided_slice/stack_1"
  op: "Const"
  attr {
    key: "dtype"
    value {
      type: DT_INT32
    }
  }
  attr {
    key: "value"
    value {
      tensor {
        dtype: DT_INT32
        tensor_shape {
          dim {
            size: 1
          }
        }
        int_val: 1
      }
    }
  }
}
node {
  name: "BoxPredictor_2/strided_slice/stack"
  op: "Const"
  attr {
    key: "dtype"
    value {
      type: DT_INT32
    }
  }
  attr {
    key: "value"
    value {
      tensor {
        dtype: DT_INT32
        tensor_shape {
          dim {
            size: 1
          }
        }
        int_val: 0
      }
    }
  }
}
node {
  name: "BoxPredictor_2/BoxEncodingPredictor/biases"
  op: "Const"
  attr {
    key: "dtype"
    value {
      type: DT_FLOAT
    }
  }
  attr {
    key: "value"
    value {
      tensor {
        dtype: DT_FLOAT
        tensor_shape {
          dim {
            size: 24
          }
        }
      }
    }
  }
}
node {
  name: "BoxPredictor_2/BoxEncodingPredictor/biases/read"
  op: "Identity"
  input: "BoxPredictor_2/BoxEncodingPredictor/biases"
  attr {
    key: "T"
    value {
      type: DT_FLOAT
    }
  }
  attr {
    key: "_class"
    value {
      list {
        s: "loc:@BoxPredictor_2/BoxEncodingPredictor/biases"
      }
    }
  }
}
node {
  name: "BoxPredictor_2/BoxEncodingPredictor/weights"
  op: "Const"
  attr {
    key: "dtype"
    value {
      type: DT_FLOAT
    }
  }
  attr {
    key: "value"
    value {
      tensor {
        dtype: DT_FLOAT
        tensor_shape {
          dim {
            size: 1
          }
          dim {
            size: 1
          }
          dim {
            size: 512
          }
          dim {
            size: 24
          }
        }
      }
    }
  }
}
node {
  name: "BoxPredictor_2/BoxEncodingPredictor/weights/read"
  op: "Identity"
  input: "BoxPredictor_2/BoxEncodingPredictor/weights"
  attr {
    key: "T"
    value {
      type: DT_FLOAT
    }
  }
  attr {
    key: "_class"
    value {
      list {
        s: "loc:@BoxPredictor_2/BoxEncodingPredictor/weights"
      }
    }
  }
}
node {
  name: "BoxPredictor_2/BoxEncodingPredictor_depthwise/BatchNorm/moving_variance"
  op: "Const"
  attr {
    key: "dtype"
    value {
      type: DT_FLOAT
    }
  }
  attr {
    key: "value"
    value {
      tensor {
        dtype: DT_FLOAT
        tensor_shape {
          dim {
            size: 512
          }
        }
      }
    }
  }
}
node {
  name: "BoxPredictor_2/BoxEncodingPredictor_depthwise/BatchNorm/moving_variance/read"
  op: "Identity"
  input: "BoxPredictor_2/BoxEncodingPredictor_depthwise/BatchNorm/moving_variance"
  attr {
    key: "T"
    value {
      type: DT_FLOAT
    }
  }
  attr {
    key: "_class"
    value {
      list {
        s: "loc:@BoxPredictor_2/BoxEncodingPredictor_depthwise/BatchNorm/moving_variance"
      }
    }
  }
}
node {
  name: "BoxPredictor_2/BoxEncodingPredictor_depthwise/BatchNorm/moving_mean"
  op: "Const"
  attr {
    key: "dtype"
    value {
      type: DT_FLOAT
    }
  }
  attr {
    key: "value"
    value {
      tensor {
        dtype: DT_FLOAT
        tensor_shape {
          dim {
            size: 512
          }
        }
      }
    }
  }
}
node {
  name: "BoxPredictor_2/BoxEncodingPredictor_depthwise/BatchNorm/moving_mean/read"
  op: "Identity"
  input: "BoxPredictor_2/BoxEncodingPredictor_depthwise/BatchNorm/moving_mean"
  attr {
    key: "T"
    value {
      type: DT_FLOAT
    }
  }
  attr {
    key: "_class"
    value {
      list {
        s: "loc:@BoxPredictor_2/BoxEncodingPredictor_depthwise/BatchNorm/moving_mean"
      }
    }
  }
}
node {
  name: "BoxPredictor_2/BoxEncodingPredictor_depthwise/BatchNorm/beta"
  op: "Const"
  attr {
    key: "dtype"
    value {
      type: DT_FLOAT
    }
  }
  attr {
    key: "value"
    value {
      tensor {
        dtype: DT_FLOAT
        tensor_shape {
          dim {
            size: 512
          }
        }
      }
    }
  }
}
node {
  name: "BoxPredictor_2/BoxEncodingPredictor_depthwise/BatchNorm/beta/read"
  op: "Identity"
  input: "BoxPredictor_2/BoxEncodingPredictor_depthwise/BatchNorm/beta"
  attr {
    key: "T"
    value {
      type: DT_FLOAT
    }
  }
  attr {
    key: "_class"
    value {
      list {
        s: "loc:@BoxPredictor_2/BoxEncodingPredictor_depthwise/BatchNorm/beta"
      }
    }
  }
}
node {
  name: "BoxPredictor_2/BoxEncodingPredictor_depthwise/BatchNorm/gamma"
  op: "Const"
  attr {
    key: "dtype"
    value {
      type: DT_FLOAT
    }
  }
  attr {
    key: "value"
    value {
      tensor {
        dtype: DT_FLOAT
        tensor_shape {
          dim {
            size: 512
          }
        }
      }
    }
  }
}
node {
  name: "BoxPredictor_2/BoxEncodingPredictor_depthwise/BatchNorm/gamma/read"
  op: "Identity"
  input: "BoxPredictor_2/BoxEncodingPredictor_depthwise/BatchNorm/gamma"
  attr {
    key: "T"
    value {
      type: DT_FLOAT
    }
  }
  attr {
    key: "_class"
    value {
      list {
        s: "loc:@BoxPredictor_2/BoxEncodingPredictor_depthwise/BatchNorm/gamma"
      }
    }
  }
}
node {
  name: "BoxPredictor_2/BoxEncodingPredictor_depthwise/depthwise_weights"
  op: "Const"
  attr {
    key: "dtype"
    value {
      type: DT_FLOAT
    }
  }
  attr {
    key: "value"
    value {
      tensor {
        dtype: DT_FLOAT
        tensor_shape {
          dim {
            size: 3
          }
          dim {
            size: 3
          }
          dim {
            size: 512
          }
          dim {
            size: 1
          }
        }
      }
    }
  }
}
node {
  name: "BoxPredictor_2/BoxEncodingPredictor_depthwise/depthwise_weights/read"
  op: "Identity"
  input: "BoxPredictor_2/BoxEncodingPredictor_depthwise/depthwise_weights"
  attr {
    key: "T"
    value {
      type: DT_FLOAT
    }
  }
  attr {
    key: "_class"
    value {
      list {
        s: "loc:@BoxPredictor_2/BoxEncodingPredictor_depthwise/depthwise_weights"
      }
    }
  }
}
node {
  name: "BoxPredictor_1/Reshape_1/shape/2"
  op: "Const"
  attr {
    key: "dtype"
    value {
      type: DT_INT32
    }
  }
  attr {
    key: "value"
    value {
      tensor {
        dtype: DT_INT32
        tensor_shape {
        }
        int_val: 5
      }
    }
  }
}
node {
  name: "BoxPredictor_1/Reshape_1/shape/1"
  op: "Const"
  attr {
    key: "dtype"
    value {
      type: DT_INT32
    }
  }
  attr {
    key: "value"
    value {
      tensor {
        dtype: DT_INT32
        tensor_shape {
        }
        int_val: -1
      }
    }
  }
}
node {
  name: "BoxPredictor_1/strided_slice_1/stack_2"
  op: "Const"
  attr {
    key: "dtype"
    value {
      type: DT_INT32
    }
  }
  attr {
    key: "value"
    value {
      tensor {
        dtype: DT_INT32
        tensor_shape {
          dim {
            size: 1
          }
        }
        int_val: 1
      }
    }
  }
}
node {
  name: "BoxPredictor_1/strided_slice_1/stack_1"
  op: "Const"
  attr {
    key: "dtype"
    value {
      type: DT_INT32
    }
  }
  attr {
    key: "value"
    value {
      tensor {
        dtype: DT_INT32
        tensor_shape {
          dim {
            size: 1
          }
        }
        int_val: 1
      }
    }
  }
}
node {
  name: "BoxPredictor_1/strided_slice_1/stack"
  op: "Const"
  attr {
    key: "dtype"
    value {
      type: DT_INT32
    }
  }
  attr {
    key: "value"
    value {
      tensor {
        dtype: DT_INT32
        tensor_shape {
          dim {
            size: 1
          }
        }
        int_val: 0
      }
    }
  }
}
node {
  name: "BoxPredictor_1/ClassPredictor/biases"
  op: "Const"
  attr {
    key: "dtype"
    value {
      type: DT_FLOAT
    }
  }
  attr {
    key: "value"
    value {
      tensor {
        dtype: DT_FLOAT
        tensor_shape {
          dim {
            size: 30
          }
        }
      }
    }
  }
}
node {
  name: "BoxPredictor_1/ClassPredictor/biases/read"
  op: "Identity"
  input: "BoxPredictor_1/ClassPredictor/biases"
  attr {
    key: "T"
    value {
      type: DT_FLOAT
    }
  }
  attr {
    key: "_class"
    value {
      list {
        s: "loc:@BoxPredictor_1/ClassPredictor/biases"
      }
    }
  }
}
node {
  name: "BoxPredictor_1/ClassPredictor/weights"
  op: "Const"
  attr {
    key: "dtype"
    value {
      type: DT_FLOAT
    }
  }
  attr {
    key: "value"
    value {
      tensor {
        dtype: DT_FLOAT
        tensor_shape {
          dim {
            size: 1
          }
          dim {
            size: 1
          }
          dim {
            size: 1280
          }
          dim {
            size: 30
          }
        }
      }
    }
  }
}
node {
  name: "BoxPredictor_1/ClassPredictor/weights/read"
  op: "Identity"
  input: "BoxPredictor_1/ClassPredictor/weights"
  attr {
    key: "T"
    value {
      type: DT_FLOAT
    }
  }
  attr {
    key: "_class"
    value {
      list {
        s: "loc:@BoxPredictor_1/ClassPredictor/weights"
      }
    }
  }
}
node {
  name: "BoxPredictor_1/ClassPredictor_depthwise/BatchNorm/moving_variance"
  op: "Const"
  attr {
    key: "dtype"
    value {
      type: DT_FLOAT
    }
  }
  attr {
    key: "value"
    value {
      tensor {
        dtype: DT_FLOAT
        tensor_shape {
          dim {
            size: 1280
          }
        }
      }
    }
  }
}
node {
  name: "BoxPredictor_1/ClassPredictor_depthwise/BatchNorm/moving_variance/read"
  op: "Identity"
  input: "BoxPredictor_1/ClassPredictor_depthwise/BatchNorm/moving_variance"
  attr {
    key: "T"
    value {
      type: DT_FLOAT
    }
  }
  attr {
    key: "_class"
    value {
      list {
        s: "loc:@BoxPredictor_1/ClassPredictor_depthwise/BatchNorm/moving_variance"
      }
    }
  }
}
node {
  name: "BoxPredictor_1/ClassPredictor_depthwise/BatchNorm/moving_mean"
  op: "Const"
  attr {
    key: "dtype"
    value {
      type: DT_FLOAT
    }
  }
  attr {
    key: "value"
    value {
      tensor {
        dtype: DT_FLOAT
        tensor_shape {
          dim {
            size: 1280
          }
        }
      }
    }
  }
}
node {
  name: "BoxPredictor_1/ClassPredictor_depthwise/BatchNorm/moving_mean/read"
  op: "Identity"
  input: "BoxPredictor_1/ClassPredictor_depthwise/BatchNorm/moving_mean"
  attr {
    key: "T"
    value {
      type: DT_FLOAT
    }
  }
  attr {
    key: "_class"
    value {
      list {
        s: "loc:@BoxPredictor_1/ClassPredictor_depthwise/BatchNorm/moving_mean"
      }
    }
  }
}
node {
  name: "BoxPredictor_1/ClassPredictor_depthwise/BatchNorm/beta"
  op: "Const"
  attr {
    key: "dtype"
    value {
      type: DT_FLOAT
    }
  }
  attr {
    key: "value"
    value {
      tensor {
        dtype: DT_FLOAT
        tensor_shape {
          dim {
            size: 1280
          }
        }
      }
    }
  }
}
node {
  name: "BoxPredictor_1/ClassPredictor_depthwise/BatchNorm/beta/read"
  op: "Identity"
  input: "BoxPredictor_1/ClassPredictor_depthwise/BatchNorm/beta"
  attr {
    key: "T"
    value {
      type: DT_FLOAT
    }
  }
  attr {
    key: "_class"
    value {
      list {
        s: "loc:@BoxPredictor_1/ClassPredictor_depthwise/BatchNorm/beta"
      }
    }
  }
}
node {
  name: "BoxPredictor_1/ClassPredictor_depthwise/BatchNorm/gamma"
  op: "Const"
  attr {
    key: "dtype"
    value {
      type: DT_FLOAT
    }
  }
  attr {
    key: "value"
    value {
      tensor {
        dtype: DT_FLOAT
        tensor_shape {
          dim {
            size: 1280
          }
        }
      }
    }
  }
}
node {
  name: "BoxPredictor_1/ClassPredictor_depthwise/BatchNorm/gamma/read"
  op: "Identity"
  input: "BoxPredictor_1/ClassPredictor_depthwise/BatchNorm/gamma"
  attr {
    key: "T"
    value {
      type: DT_FLOAT
    }
  }
  attr {
    key: "_class"
    value {
      list {
        s: "loc:@BoxPredictor_1/ClassPredictor_depthwise/BatchNorm/gamma"
      }
    }
  }
}
node {
  name: "BoxPredictor_1/ClassPredictor_depthwise/depthwise_weights"
  op: "Const"
  attr {
    key: "dtype"
    value {
      type: DT_FLOAT
    }
  }
  attr {
    key: "value"
    value {
      tensor {
        dtype: DT_FLOAT
        tensor_shape {
          dim {
            size: 3
          }
          dim {
            size: 3
          }
          dim {
            size: 1280
          }
          dim {
            size: 1
          }
        }
      }
    }
  }
}
node {
  name: "BoxPredictor_1/ClassPredictor_depthwise/depthwise_weights/read"
  op: "Identity"
  input: "BoxPredictor_1/ClassPredictor_depthwise/depthwise_weights"
  attr {
    key: "T"
    value {
      type: DT_FLOAT
    }
  }
  attr {
    key: "_class"
    value {
      list {
        s: "loc:@BoxPredictor_1/ClassPredictor_depthwise/depthwise_weights"
      }
    }
  }
}
node {
  name: "BoxPredictor_1/Reshape/shape/3"
  op: "Const"
  attr {
    key: "dtype"
    value {
      type: DT_INT32
    }
  }
  attr {
    key: "value"
    value {
      tensor {
        dtype: DT_INT32
        tensor_shape {
        }
        int_val: 4
      }
    }
  }
}
node {
  name: "BoxPredictor_1/Reshape/shape/2"
  op: "Const"
  attr {
    key: "dtype"
    value {
      type: DT_INT32
    }
  }
  attr {
    key: "value"
    value {
      tensor {
        dtype: DT_INT32
        tensor_shape {
        }
        int_val: 1
      }
    }
  }
}
node {
  name: "BoxPredictor_1/Reshape/shape/1"
  op: "Const"
  attr {
    key: "dtype"
    value {
      type: DT_INT32
    }
  }
  attr {
    key: "value"
    value {
      tensor {
        dtype: DT_INT32
        tensor_shape {
        }
        int_val: -1
      }
    }
  }
}
node {
  name: "BoxPredictor_1/strided_slice/stack_2"
  op: "Const"
  attr {
    key: "dtype"
    value {
      type: DT_INT32
    }
  }
  attr {
    key: "value"
    value {
      tensor {
        dtype: DT_INT32
        tensor_shape {
          dim {
            size: 1
          }
        }
        int_val: 1
      }
    }
  }
}
node {
  name: "BoxPredictor_1/strided_slice/stack_1"
  op: "Const"
  attr {
    key: "dtype"
    value {
      type: DT_INT32
    }
  }
  attr {
    key: "value"
    value {
      tensor {
        dtype: DT_INT32
        tensor_shape {
          dim {
            size: 1
          }
        }
        int_val: 1
      }
    }
  }
}
node {
  name: "BoxPredictor_1/strided_slice/stack"
  op: "Const"
  attr {
    key: "dtype"
    value {
      type: DT_INT32
    }
  }
  attr {
    key: "value"
    value {
      tensor {
        dtype: DT_INT32
        tensor_shape {
          dim {
            size: 1
          }
        }
        int_val: 0
      }
    }
  }
}
node {
  name: "BoxPredictor_1/BoxEncodingPredictor/biases"
  op: "Const"
  attr {
    key: "dtype"
    value {
      type: DT_FLOAT
    }
  }
  attr {
    key: "value"
    value {
      tensor {
        dtype: DT_FLOAT
        tensor_shape {
          dim {
            size: 24
          }
        }
      }
    }
  }
}
node {
  name: "BoxPredictor_1/BoxEncodingPredictor/biases/read"
  op: "Identity"
  input: "BoxPredictor_1/BoxEncodingPredictor/biases"
  attr {
    key: "T"
    value {
      type: DT_FLOAT
    }
  }
  attr {
    key: "_class"
    value {
      list {
        s: "loc:@BoxPredictor_1/BoxEncodingPredictor/biases"
      }
    }
  }
}
node {
  name: "BoxPredictor_1/BoxEncodingPredictor/weights"
  op: "Const"
  attr {
    key: "dtype"
    value {
      type: DT_FLOAT
    }
  }
  attr {
    key: "value"
    value {
      tensor {
        dtype: DT_FLOAT
        tensor_shape {
          dim {
            size: 1
          }
          dim {
            size: 1
          }
          dim {
            size: 1280
          }
          dim {
            size: 24
          }
        }
      }
    }
  }
}
node {
  name: "BoxPredictor_1/BoxEncodingPredictor/weights/read"
  op: "Identity"
  input: "BoxPredictor_1/BoxEncodingPredictor/weights"
  attr {
    key: "T"
    value {
      type: DT_FLOAT
    }
  }
  attr {
    key: "_class"
    value {
      list {
        s: "loc:@BoxPredictor_1/BoxEncodingPredictor/weights"
      }
    }
  }
}
node {
  name: "BoxPredictor_1/BoxEncodingPredictor_depthwise/BatchNorm/moving_variance"
  op: "Const"
  attr {
    key: "dtype"
    value {
      type: DT_FLOAT
    }
  }
  attr {
    key: "value"
    value {
      tensor {
        dtype: DT_FLOAT
        tensor_shape {
          dim {
            size: 1280
          }
        }
      }
    }
  }
}
node {
  name: "BoxPredictor_1/BoxEncodingPredictor_depthwise/BatchNorm/moving_variance/read"
  op: "Identity"
  input: "BoxPredictor_1/BoxEncodingPredictor_depthwise/BatchNorm/moving_variance"
  attr {
    key: "T"
    value {
      type: DT_FLOAT
    }
  }
  attr {
    key: "_class"
    value {
      list {
        s: "loc:@BoxPredictor_1/BoxEncodingPredictor_depthwise/BatchNorm/moving_variance"
      }
    }
  }
}
node {
  name: "BoxPredictor_1/BoxEncodingPredictor_depthwise/BatchNorm/moving_mean"
  op: "Const"
  attr {
    key: "dtype"
    value {
      type: DT_FLOAT
    }
  }
  attr {
    key: "value"
    value {
      tensor {
        dtype: DT_FLOAT
        tensor_shape {
          dim {
            size: 1280
          }
        }
      }
    }
  }
}
node {
  name: "BoxPredictor_1/BoxEncodingPredictor_depthwise/BatchNorm/moving_mean/read"
  op: "Identity"
  input: "BoxPredictor_1/BoxEncodingPredictor_depthwise/BatchNorm/moving_mean"
  attr {
    key: "T"
    value {
      type: DT_FLOAT
    }
  }
  attr {
    key: "_class"
    value {
      list {
        s: "loc:@BoxPredictor_1/BoxEncodingPredictor_depthwise/BatchNorm/moving_mean"
      }
    }
  }
}
node {
  name: "BoxPredictor_1/BoxEncodingPredictor_depthwise/BatchNorm/beta"
  op: "Const"
  attr {
    key: "dtype"
    value {
      type: DT_FLOAT
    }
  }
  attr {
    key: "value"
    value {
      tensor {
        dtype: DT_FLOAT
        tensor_shape {
          dim {
            size: 1280
          }
        }
      }
    }
  }
}
node {
  name: "BoxPredictor_1/BoxEncodingPredictor_depthwise/BatchNorm/beta/read"
  op: "Identity"
  input: "BoxPredictor_1/BoxEncodingPredictor_depthwise/BatchNorm/beta"
  attr {
    key: "T"
    value {
      type: DT_FLOAT
    }
  }
  attr {
    key: "_class"
    value {
      list {
        s: "loc:@BoxPredictor_1/BoxEncodingPredictor_depthwise/BatchNorm/beta"
      }
    }
  }
}
node {
  name: "BoxPredictor_1/BoxEncodingPredictor_depthwise/BatchNorm/gamma"
  op: "Const"
  attr {
    key: "dtype"
    value {
      type: DT_FLOAT
    }
  }
  attr {
    key: "value"
    value {
      tensor {
        dtype: DT_FLOAT
        tensor_shape {
          dim {
            size: 1280
          }
        }
      }
    }
  }
}
node {
  name: "BoxPredictor_1/BoxEncodingPredictor_depthwise/BatchNorm/gamma/read"
  op: "Identity"
  input: "BoxPredictor_1/BoxEncodingPredictor_depthwise/BatchNorm/gamma"
  attr {
    key: "T"
    value {
      type: DT_FLOAT
    }
  }
  attr {
    key: "_class"
    value {
      list {
        s: "loc:@BoxPredictor_1/BoxEncodingPredictor_depthwise/BatchNorm/gamma"
      }
    }
  }
}
node {
  name: "BoxPredictor_1/BoxEncodingPredictor_depthwise/depthwise_weights"
  op: "Const"
  attr {
    key: "dtype"
    value {
      type: DT_FLOAT
    }
  }
  attr {
    key: "value"
    value {
      tensor {
        dtype: DT_FLOAT
        tensor_shape {
          dim {
            size: 3
          }
          dim {
            size: 3
          }
          dim {
            size: 1280
          }
          dim {
            size: 1
          }
        }
      }
    }
  }
}
node {
  name: "BoxPredictor_1/BoxEncodingPredictor_depthwise/depthwise_weights/read"
  op: "Identity"
  input: "BoxPredictor_1/BoxEncodingPredictor_depthwise/depthwise_weights"
  attr {
    key: "T"
    value {
      type: DT_FLOAT
    }
  }
  attr {
    key: "_class"
    value {
      list {
        s: "loc:@BoxPredictor_1/BoxEncodingPredictor_depthwise/depthwise_weights"
      }
    }
  }
}
node {
  name: "BoxPredictor_0/Reshape_1/shape/2"
  op: "Const"
  attr {
    key: "dtype"
    value {
      type: DT_INT32
    }
  }
  attr {
    key: "value"
    value {
      tensor {
        dtype: DT_INT32
        tensor_shape {
        }
        int_val: 5
      }
    }
  }
}
node {
  name: "BoxPredictor_0/Reshape_1/shape/1"
  op: "Const"
  attr {
    key: "dtype"
    value {
      type: DT_INT32
    }
  }
  attr {
    key: "value"
    value {
      tensor {
        dtype: DT_INT32
        tensor_shape {
        }
        int_val: -1
      }
    }
  }
}
node {
  name: "BoxPredictor_0/strided_slice_1/stack_2"
  op: "Const"
  attr {
    key: "dtype"
    value {
      type: DT_INT32
    }
  }
  attr {
    key: "value"
    value {
      tensor {
        dtype: DT_INT32
        tensor_shape {
          dim {
            size: 1
          }
        }
        int_val: 1
      }
    }
  }
}
node {
  name: "BoxPredictor_0/strided_slice_1/stack_1"
  op: "Const"
  attr {
    key: "dtype"
    value {
      type: DT_INT32
    }
  }
  attr {
    key: "value"
    value {
      tensor {
        dtype: DT_INT32
        tensor_shape {
          dim {
            size: 1
          }
        }
        int_val: 1
      }
    }
  }
}
node {
  name: "BoxPredictor_0/strided_slice_1/stack"
  op: "Const"
  attr {
    key: "dtype"
    value {
      type: DT_INT32
    }
  }
  attr {
    key: "value"
    value {
      tensor {
        dtype: DT_INT32
        tensor_shape {
          dim {
            size: 1
          }
        }
        int_val: 0
      }
    }
  }
}
node {
  name: "BoxPredictor_0/ClassPredictor/biases"
  op: "Const"
  attr {
    key: "dtype"
    value {
      type: DT_FLOAT
    }
  }
  attr {
    key: "value"
    value {
      tensor {
        dtype: DT_FLOAT
        tensor_shape {
          dim {
            size: 15
          }
        }
      }
    }
  }
}
node {
  name: "BoxPredictor_0/ClassPredictor/biases/read"
  op: "Identity"
  input: "BoxPredictor_0/ClassPredictor/biases"
  attr {
    key: "T"
    value {
      type: DT_FLOAT
    }
  }
  attr {
    key: "_class"
    value {
      list {
        s: "loc:@BoxPredictor_0/ClassPredictor/biases"
      }
    }
  }
}
node {
  name: "BoxPredictor_0/ClassPredictor/weights"
  op: "Const"
  attr {
    key: "dtype"
    value {
      type: DT_FLOAT
    }
  }
  attr {
    key: "value"
    value {
      tensor {
        dtype: DT_FLOAT
        tensor_shape {
          dim {
            size: 1
          }
          dim {
            size: 1
          }
          dim {
            size: 576
          }
          dim {
            size: 15
          }
        }
      }
    }
  }
}
node {
  name: "BoxPredictor_0/ClassPredictor/weights/read"
  op: "Identity"
  input: "BoxPredictor_0/ClassPredictor/weights"
  attr {
    key: "T"
    value {
      type: DT_FLOAT
    }
  }
  attr {
    key: "_class"
    value {
      list {
        s: "loc:@BoxPredictor_0/ClassPredictor/weights"
      }
    }
  }
}
node {
  name: "BoxPredictor_0/ClassPredictor_depthwise/BatchNorm/moving_variance"
  op: "Const"
  attr {
    key: "dtype"
    value {
      type: DT_FLOAT
    }
  }
  attr {
    key: "value"
    value {
      tensor {
        dtype: DT_FLOAT
        tensor_shape {
          dim {
            size: 576
          }
        }
      }
    }
  }
}
node {
  name: "BoxPredictor_0/ClassPredictor_depthwise/BatchNorm/moving_variance/read"
  op: "Identity"
  input: "BoxPredictor_0/ClassPredictor_depthwise/BatchNorm/moving_variance"
  attr {
    key: "T"
    value {
      type: DT_FLOAT
    }
  }
  attr {
    key: "_class"
    value {
      list {
        s: "loc:@BoxPredictor_0/ClassPredictor_depthwise/BatchNorm/moving_variance"
      }
    }
  }
}
node {
  name: "BoxPredictor_0/ClassPredictor_depthwise/BatchNorm/moving_mean"
  op: "Const"
  attr {
    key: "dtype"
    value {
      type: DT_FLOAT
    }
  }
  attr {
    key: "value"
    value {
      tensor {
        dtype: DT_FLOAT
        tensor_shape {
          dim {
            size: 576
          }
        }
      }
    }
  }
}
node {
  name: "BoxPredictor_0/ClassPredictor_depthwise/BatchNorm/moving_mean/read"
  op: "Identity"
  input: "BoxPredictor_0/ClassPredictor_depthwise/BatchNorm/moving_mean"
  attr {
    key: "T"
    value {
      type: DT_FLOAT
    }
  }
  attr {
    key: "_class"
    value {
      list {
        s: "loc:@BoxPredictor_0/ClassPredictor_depthwise/BatchNorm/moving_mean"
      }
    }
  }
}
node {
  name: "BoxPredictor_0/ClassPredictor_depthwise/BatchNorm/beta"
  op: "Const"
  attr {
    key: "dtype"
    value {
      type: DT_FLOAT
    }
  }
  attr {
    key: "value"
    value {
      tensor {
        dtype: DT_FLOAT
        tensor_shape {
          dim {
            size: 576
          }
        }
      }
    }
  }
}
node {
  name: "BoxPredictor_0/ClassPredictor_depthwise/BatchNorm/beta/read"
  op: "Identity"
  input: "BoxPredictor_0/ClassPredictor_depthwise/BatchNorm/beta"
  attr {
    key: "T"
    value {
      type: DT_FLOAT
    }
  }
  attr {
    key: "_class"
    value {
      list {
        s: "loc:@BoxPredictor_0/ClassPredictor_depthwise/BatchNorm/beta"
      }
    }
  }
}
node {
  name: "BoxPredictor_0/ClassPredictor_depthwise/BatchNorm/gamma"
  op: "Const"
  attr {
    key: "dtype"
    value {
      type: DT_FLOAT
    }
  }
  attr {
    key: "value"
    value {
      tensor {
        dtype: DT_FLOAT
        tensor_shape {
          dim {
            size: 576
          }
        }
      }
    }
  }
}
node {
  name: "BoxPredictor_0/ClassPredictor_depthwise/BatchNorm/gamma/read"
  op: "Identity"
  input: "BoxPredictor_0/ClassPredictor_depthwise/BatchNorm/gamma"
  attr {
    key: "T"
    value {
      type: DT_FLOAT
    }
  }
  attr {
    key: "_class"
    value {
      list {
        s: "loc:@BoxPredictor_0/ClassPredictor_depthwise/BatchNorm/gamma"
      }
    }
  }
}
node {
  name: "BoxPredictor_0/ClassPredictor_depthwise/depthwise_weights"
  op: "Const"
  attr {
    key: "dtype"
    value {
      type: DT_FLOAT
    }
  }
  attr {
    key: "value"
    value {
      tensor {
        dtype: DT_FLOAT
        tensor_shape {
          dim {
            size: 3
          }
          dim {
            size: 3
          }
          dim {
            size: 576
          }
          dim {
            size: 1
          }
        }
      }
    }
  }
}
node {
  name: "BoxPredictor_0/ClassPredictor_depthwise/depthwise_weights/read"
  op: "Identity"
  input: "BoxPredictor_0/ClassPredictor_depthwise/depthwise_weights"
  attr {
    key: "T"
    value {
      type: DT_FLOAT
    }
  }
  attr {
    key: "_class"
    value {
      list {
        s: "loc:@BoxPredictor_0/ClassPredictor_depthwise/depthwise_weights"
      }
    }
  }
}
node {
  name: "BoxPredictor_0/Reshape/shape/3"
  op: "Const"
  attr {
    key: "dtype"
    value {
      type: DT_INT32
    }
  }
  attr {
    key: "value"
    value {
      tensor {
        dtype: DT_INT32
        tensor_shape {
        }
        int_val: 4
      }
    }
  }
}
node {
  name: "BoxPredictor_0/Reshape/shape/2"
  op: "Const"
  attr {
    key: "dtype"
    value {
      type: DT_INT32
    }
  }
  attr {
    key: "value"
    value {
      tensor {
        dtype: DT_INT32
        tensor_shape {
        }
        int_val: 1
      }
    }
  }
}
node {
  name: "BoxPredictor_0/Reshape/shape/1"
  op: "Const"
  attr {
    key: "dtype"
    value {
      type: DT_INT32
    }
  }
  attr {
    key: "value"
    value {
      tensor {
        dtype: DT_INT32
        tensor_shape {
        }
        int_val: -1
      }
    }
  }
}
node {
  name: "BoxPredictor_0/strided_slice/stack_2"
  op: "Const"
  attr {
    key: "dtype"
    value {
      type: DT_INT32
    }
  }
  attr {
    key: "value"
    value {
      tensor {
        dtype: DT_INT32
        tensor_shape {
          dim {
            size: 1
          }
        }
        int_val: 1
      }
    }
  }
}
node {
  name: "BoxPredictor_0/strided_slice/stack_1"
  op: "Const"
  attr {
    key: "dtype"
    value {
      type: DT_INT32
    }
  }
  attr {
    key: "value"
    value {
      tensor {
        dtype: DT_INT32
        tensor_shape {
          dim {
            size: 1
          }
        }
        int_val: 1
      }
    }
  }
}
node {
  name: "BoxPredictor_0/strided_slice/stack"
  op: "Const"
  attr {
    key: "dtype"
    value {
      type: DT_INT32
    }
  }
  attr {
    key: "value"
    value {
      tensor {
        dtype: DT_INT32
        tensor_shape {
          dim {
            size: 1
          }
        }
        int_val: 0
      }
    }
  }
}
node {
  name: "BoxPredictor_0/BoxEncodingPredictor/biases"
  op: "Const"
  attr {
    key: "dtype"
    value {
      type: DT_FLOAT
    }
  }
  attr {
    key: "value"
    value {
      tensor {
        dtype: DT_FLOAT
        tensor_shape {
          dim {
            size: 12
          }
        }
      }
    }
  }
}
node {
  name: "BoxPredictor_0/BoxEncodingPredictor/biases/read"
  op: "Identity"
  input: "BoxPredictor_0/BoxEncodingPredictor/biases"
  attr {
    key: "T"
    value {
      type: DT_FLOAT
    }
  }
  attr {
    key: "_class"
    value {
      list {
        s: "loc:@BoxPredictor_0/BoxEncodingPredictor/biases"
      }
    }
  }
}
node {
  name: "BoxPredictor_0/BoxEncodingPredictor/weights"
  op: "Const"
  attr {
    key: "dtype"
    value {
      type: DT_FLOAT
    }
  }
  attr {
    key: "value"
    value {
      tensor {
        dtype: DT_FLOAT
        tensor_shape {
          dim {
            size: 1
          }
          dim {
            size: 1
          }
          dim {
            size: 576
          }
          dim {
            size: 12
          }
        }
      }
    }
  }
}
node {
  name: "BoxPredictor_0/BoxEncodingPredictor/weights/read"
  op: "Identity"
  input: "BoxPredictor_0/BoxEncodingPredictor/weights"
  attr {
    key: "T"
    value {
      type: DT_FLOAT
    }
  }
  attr {
    key: "_class"
    value {
      list {
        s: "loc:@BoxPredictor_0/BoxEncodingPredictor/weights"
      }
    }
  }
}
node {
  name: "BoxPredictor_0/BoxEncodingPredictor_depthwise/BatchNorm/moving_variance"
  op: "Const"
  attr {
    key: "dtype"
    value {
      type: DT_FLOAT
    }
  }
  attr {
    key: "value"
    value {
      tensor {
        dtype: DT_FLOAT
        tensor_shape {
          dim {
            size: 576
          }
        }
      }
    }
  }
}
node {
  name: "BoxPredictor_0/BoxEncodingPredictor_depthwise/BatchNorm/moving_variance/read"
  op: "Identity"
  input: "BoxPredictor_0/BoxEncodingPredictor_depthwise/BatchNorm/moving_variance"
  attr {
    key: "T"
    value {
      type: DT_FLOAT
    }
  }
  attr {
    key: "_class"
    value {
      list {
        s: "loc:@BoxPredictor_0/BoxEncodingPredictor_depthwise/BatchNorm/moving_variance"
      }
    }
  }
}
node {
  name: "BoxPredictor_0/BoxEncodingPredictor_depthwise/BatchNorm/moving_mean"
  op: "Const"
  attr {
    key: "dtype"
    value {
      type: DT_FLOAT
    }
  }
  attr {
    key: "value"
    value {
      tensor {
        dtype: DT_FLOAT
        tensor_shape {
          dim {
            size: 576
          }
        }
      }
    }
  }
}
node {
  name: "BoxPredictor_0/BoxEncodingPredictor_depthwise/BatchNorm/moving_mean/read"
  op: "Identity"
  input: "BoxPredictor_0/BoxEncodingPredictor_depthwise/BatchNorm/moving_mean"
  attr {
    key: "T"
    value {
      type: DT_FLOAT
    }
  }
  attr {
    key: "_class"
    value {
      list {
        s: "loc:@BoxPredictor_0/BoxEncodingPredictor_depthwise/BatchNorm/moving_mean"
      }
    }
  }
}
node {
  name: "BoxPredictor_0/BoxEncodingPredictor_depthwise/BatchNorm/beta"
  op: "Const"
  attr {
    key: "dtype"
    value {
      type: DT_FLOAT
    }
  }
  attr {
    key: "value"
    value {
      tensor {
        dtype: DT_FLOAT
        tensor_shape {
          dim {
            size: 576
          }
        }
      }
    }
  }
}
node {
  name: "BoxPredictor_0/BoxEncodingPredictor_depthwise/BatchNorm/beta/read"
  op: "Identity"
  input: "BoxPredictor_0/BoxEncodingPredictor_depthwise/BatchNorm/beta"
  attr {
    key: "T"
    value {
      type: DT_FLOAT
    }
  }
  attr {
    key: "_class"
    value {
      list {
        s: "loc:@BoxPredictor_0/BoxEncodingPredictor_depthwise/BatchNorm/beta"
      }
    }
  }
}
node {
  name: "BoxPredictor_0/BoxEncodingPredictor_depthwise/BatchNorm/gamma"
  op: "Const"
  attr {
    key: "dtype"
    value {
      type: DT_FLOAT
    }
  }
  attr {
    key: "value"
    value {
      tensor {
        dtype: DT_FLOAT
        tensor_shape {
          dim {
            size: 576
          }
        }
      }
    }
  }
}
node {
  name: "BoxPredictor_0/BoxEncodingPredictor_depthwise/BatchNorm/gamma/read"
  op: "Identity"
  input: "BoxPredictor_0/BoxEncodingPredictor_depthwise/BatchNorm/gamma"
  attr {
    key: "T"
    value {
      type: DT_FLOAT
    }
  }
  attr {
    key: "_class"
    value {
      list {
        s: "loc:@BoxPredictor_0/BoxEncodingPredictor_depthwise/BatchNorm/gamma"
      }
    }
  }
}
node {
  name: "BoxPredictor_0/BoxEncodingPredictor_depthwise/depthwise_weights"
  op: "Const"
  attr {
    key: "dtype"
    value {
      type: DT_FLOAT
    }
  }
  attr {
    key: "value"
    value {
      tensor {
        dtype: DT_FLOAT
        tensor_shape {
          dim {
            size: 3
          }
          dim {
            size: 3
          }
          dim {
            size: 576
          }
          dim {
            size: 1
          }
        }
      }
    }
  }
}
node {
  name: "BoxPredictor_0/BoxEncodingPredictor_depthwise/depthwise_weights/read"
  op: "Identity"
  input: "BoxPredictor_0/BoxEncodingPredictor_depthwise/depthwise_weights"
  attr {
    key: "T"
    value {
      type: DT_FLOAT
    }
  }
  attr {
    key: "_class"
    value {
      list {
        s: "loc:@BoxPredictor_0/BoxEncodingPredictor_depthwise/depthwise_weights"
      }
    }
  }
}
node {
  name: "Concatenate/concat/axis"
  op: "Const"
  attr {
    key: "dtype"
    value {
      type: DT_INT32
    }
  }
  attr {
    key: "value"
    value {
      tensor {
        dtype: DT_INT32
        tensor_shape {
        }
        int_val: 0
      }
    }
  }
}
node {
  name: "MultipleGridAnchorGenerator/assert_equal/Assert/Assert/data_4"
  op: "Const"
  attr {
    key: "dtype"
    value {
      type: DT_STRING
    }
  }
  attr {
    key: "value"
    value {
      tensor {
        dtype: DT_STRING
        tensor_shape {
        }
        string_val: "y (MultipleGridAnchorGenerator/add_23:0) = "
      }
    }
  }
}
node {
  name: "MultipleGridAnchorGenerator/assert_equal/Assert/Assert/data_2"
  op: "Const"
  attr {
    key: "dtype"
    value {
      type: DT_STRING
    }
  }
  attr {
    key: "value"
    value {
      tensor {
        dtype: DT_STRING
        tensor_shape {
        }
        string_val: "x (MultipleGridAnchorGenerator/assert_equal/x:0) = "
      }
    }
  }
}
node {
  name: "MultipleGridAnchorGenerator/assert_equal/Assert/Assert/data_1"
  op: "Const"
  attr {
    key: "dtype"
    value {
      type: DT_STRING
    }
  }
  attr {
    key: "value"
    value {
      tensor {
        dtype: DT_STRING
        tensor_shape {
        }
        string_val: "Condition x == y did not hold element-wise:"
      }
    }
  }
}
node {
  name: "MultipleGridAnchorGenerator/assert_equal/Assert/Assert/data_0"
  op: "Const"
  attr {
    key: "dtype"
    value {
      type: DT_STRING
    }
  }
  attr {
    key: "value"
    value {
      tensor {
        dtype: DT_STRING
        tensor_shape {
        }
        string_val: ""
      }
    }
  }
}
node {
  name: "MultipleGridAnchorGenerator/assert_equal/Const"
  op: "Const"
  attr {
    key: "dtype"
    value {
      type: DT_INT32
    }
  }
  attr {
    key: "value"
    value {
      tensor {
        dtype: DT_INT32
        tensor_shape {
          dim {
          }
        }
      }
    }
  }
}
node {
  name: "MultipleGridAnchorGenerator/assert_equal/x"
  op: "Const"
  attr {
    key: "dtype"
    value {
      type: DT_INT32
    }
  }
  attr {
    key: "value"
    value {
      tensor {
        dtype: DT_INT32
        tensor_shape {
        }
        int_val: 1917
      }
    }
  }
}
node {
  name: "MultipleGridAnchorGenerator/strided_slice_5/stack_2"
  op: "Const"
  attr {
    key: "dtype"
    value {
      type: DT_INT32
    }
  }
  attr {
    key: "value"
    value {
      tensor {
        dtype: DT_INT32
        tensor_shape {
          dim {
            size: 1
          }
        }
        int_val: 1
      }
    }
  }
}
node {
  name: "MultipleGridAnchorGenerator/strided_slice_5/stack_1"
  op: "Const"
  attr {
    key: "dtype"
    value {
      type: DT_INT32
    }
  }
  attr {
    key: "value"
    value {
      tensor {
        dtype: DT_INT32
        tensor_shape {
          dim {
            size: 1
          }
        }
        int_val: 1
      }
    }
  }
}
node {
  name: "MultipleGridAnchorGenerator/strided_slice_5/stack"
  op: "Const"
  attr {
    key: "dtype"
    value {
      type: DT_INT32
    }
  }
  attr {
    key: "value"
    value {
      tensor {
        dtype: DT_INT32
        tensor_shape {
          dim {
            size: 1
          }
        }
        int_val: 0
      }
    }
  }
}
node {
  name: "MultipleGridAnchorGenerator/Shape_5"
  op: "Const"
  attr {
    key: "dtype"
    value {
      type: DT_INT32
    }
  }
  attr {
    key: "value"
    value {
      tensor {
        dtype: DT_INT32
        tensor_shape {
          dim {
            size: 2
          }
        }
      }
    }
  }
}
node {
  name: "MultipleGridAnchorGenerator/strided_slice_5"
  op: "StridedSlice"
  input: "MultipleGridAnchorGenerator/Shape_5"
  input: "MultipleGridAnchorGenerator/strided_slice_5/stack"
  input: "MultipleGridAnchorGenerator/strided_slice_5/stack_1"
  input: "MultipleGridAnchorGenerator/strided_slice_5/stack_2"
  attr {
    key: "Index"
    value {
      type: DT_INT32
    }
  }
  attr {
    key: "T"
    value {
      type: DT_INT32
    }
  }
  attr {
    key: "begin_mask"
    value {
      i: 0
    }
  }
  attr {
    key: "ellipsis_mask"
    value {
      i: 0
    }
  }
  attr {
    key: "end_mask"
    value {
      i: 0
    }
  }
  attr {
    key: "new_axis_mask"
    value {
      i: 0
    }
  }
  attr {
    key: "shrink_axis_mask"
    value {
      i: 1
    }
  }
}
node {
  name: "MultipleGridAnchorGenerator/strided_slice_4/stack_2"
  op: "Const"
  attr {
    key: "dtype"
    value {
      type: DT_INT32
    }
  }
  attr {
    key: "value"
    value {
      tensor {
        dtype: DT_INT32
        tensor_shape {
          dim {
            size: 1
          }
        }
        int_val: 1
      }
    }
  }
}
node {
  name: "MultipleGridAnchorGenerator/strided_slice_4/stack_1"
  op: "Const"
  attr {
    key: "dtype"
    value {
      type: DT_INT32
    }
  }
  attr {
    key: "value"
    value {
      tensor {
        dtype: DT_INT32
        tensor_shape {
          dim {
            size: 1
          }
        }
        int_val: 1
      }
    }
  }
}
node {
  name: "MultipleGridAnchorGenerator/strided_slice_4/stack"
  op: "Const"
  attr {
    key: "dtype"
    value {
      type: DT_INT32
    }
  }
  attr {
    key: "value"
    value {
      tensor {
        dtype: DT_INT32
        tensor_shape {
          dim {
            size: 1
          }
        }
        int_val: 0
      }
    }
  }
}
node {
  name: "MultipleGridAnchorGenerator/Shape_4"
  op: "Const"
  attr {
    key: "dtype"
    value {
      type: DT_INT32
    }
  }
  attr {
    key: "value"
    value {
      tensor {
        dtype: DT_INT32
        tensor_shape {
          dim {
            size: 2
          }
        }
      }
    }
  }
}
node {
  name: "MultipleGridAnchorGenerator/strided_slice_4"
  op: "StridedSlice"
  input: "MultipleGridAnchorGenerator/Shape_4"
  input: "MultipleGridAnchorGenerator/strided_slice_4/stack"
  input: "MultipleGridAnchorGenerator/strided_slice_4/stack_1"
  input: "MultipleGridAnchorGenerator/strided_slice_4/stack_2"
  attr {
    key: "Index"
    value {
      type: DT_INT32
    }
  }
  attr {
    key: "T"
    value {
      type: DT_INT32
    }
  }
  attr {
    key: "begin_mask"
    value {
      i: 0
    }
  }
  attr {
    key: "ellipsis_mask"
    value {
      i: 0
    }
  }
  attr {
    key: "end_mask"
    value {
      i: 0
    }
  }
  attr {
    key: "new_axis_mask"
    value {
      i: 0
    }
  }
  attr {
    key: "shrink_axis_mask"
    value {
      i: 1
    }
  }
}
node {
  name: "MultipleGridAnchorGenerator/strided_slice_3/stack_2"
  op: "Const"
  attr {
    key: "dtype"
    value {
      type: DT_INT32
    }
  }
  attr {
    key: "value"
    value {
      tensor {
        dtype: DT_INT32
        tensor_shape {
          dim {
            size: 1
          }
        }
        int_val: 1
      }
    }
  }
}
node {
  name: "MultipleGridAnchorGenerator/strided_slice_3/stack_1"
  op: "Const"
  attr {
    key: "dtype"
    value {
      type: DT_INT32
    }
  }
  attr {
    key: "value"
    value {
      tensor {
        dtype: DT_INT32
        tensor_shape {
          dim {
            size: 1
          }
        }
        int_val: 1
      }
    }
  }
}
node {
  name: "MultipleGridAnchorGenerator/strided_slice_3/stack"
  op: "Const"
  attr {
    key: "dtype"
    value {
      type: DT_INT32
    }
  }
  attr {
    key: "value"
    value {
      tensor {
        dtype: DT_INT32
        tensor_shape {
          dim {
            size: 1
          }
        }
        int_val: 0
      }
    }
  }
}
node {
  name: "MultipleGridAnchorGenerator/Shape_3"
  op: "Const"
  attr {
    key: "dtype"
    value {
      type: DT_INT32
    }
  }
  attr {
    key: "value"
    value {
      tensor {
        dtype: DT_INT32
        tensor_shape {
          dim {
            size: 2
          }
        }
      }
    }
  }
}
node {
  name: "MultipleGridAnchorGenerator/strided_slice_3"
  op: "StridedSlice"
  input: "MultipleGridAnchorGenerator/Shape_3"
  input: "MultipleGridAnchorGenerator/strided_slice_3/stack"
  input: "MultipleGridAnchorGenerator/strided_slice_3/stack_1"
  input: "MultipleGridAnchorGenerator/strided_slice_3/stack_2"
  attr {
    key: "Index"
    value {
      type: DT_INT32
    }
  }
  attr {
    key: "T"
    value {
      type: DT_INT32
    }
  }
  attr {
    key: "begin_mask"
    value {
      i: 0
    }
  }
  attr {
    key: "ellipsis_mask"
    value {
      i: 0
    }
  }
  attr {
    key: "end_mask"
    value {
      i: 0
    }
  }
  attr {
    key: "new_axis_mask"
    value {
      i: 0
    }
  }
  attr {
    key: "shrink_axis_mask"
    value {
      i: 1
    }
  }
}
node {
  name: "MultipleGridAnchorGenerator/strided_slice_2/stack_2"
  op: "Const"
  attr {
    key: "dtype"
    value {
      type: DT_INT32
    }
  }
  attr {
    key: "value"
    value {
      tensor {
        dtype: DT_INT32
        tensor_shape {
          dim {
            size: 1
          }
        }
        int_val: 1
      }
    }
  }
}
node {
  name: "MultipleGridAnchorGenerator/strided_slice_2/stack_1"
  op: "Const"
  attr {
    key: "dtype"
    value {
      type: DT_INT32
    }
  }
  attr {
    key: "value"
    value {
      tensor {
        dtype: DT_INT32
        tensor_shape {
          dim {
            size: 1
          }
        }
        int_val: 1
      }
    }
  }
}
node {
  name: "MultipleGridAnchorGenerator/strided_slice_2/stack"
  op: "Const"
  attr {
    key: "dtype"
    value {
      type: DT_INT32
    }
  }
  attr {
    key: "value"
    value {
      tensor {
        dtype: DT_INT32
        tensor_shape {
          dim {
            size: 1
          }
        }
        int_val: 0
      }
    }
  }
}
node {
  name: "MultipleGridAnchorGenerator/Shape_2"
  op: "Const"
  attr {
    key: "dtype"
    value {
      type: DT_INT32
    }
  }
  attr {
    key: "value"
    value {
      tensor {
        dtype: DT_INT32
        tensor_shape {
          dim {
            size: 2
          }
        }
      }
    }
  }
}
node {
  name: "MultipleGridAnchorGenerator/strided_slice_2"
  op: "StridedSlice"
  input: "MultipleGridAnchorGenerator/Shape_2"
  input: "MultipleGridAnchorGenerator/strided_slice_2/stack"
  input: "MultipleGridAnchorGenerator/strided_slice_2/stack_1"
  input: "MultipleGridAnchorGenerator/strided_slice_2/stack_2"
  attr {
    key: "Index"
    value {
      type: DT_INT32
    }
  }
  attr {
    key: "T"
    value {
      type: DT_INT32
    }
  }
  attr {
    key: "begin_mask"
    value {
      i: 0
    }
  }
  attr {
    key: "ellipsis_mask"
    value {
      i: 0
    }
  }
  attr {
    key: "end_mask"
    value {
      i: 0
    }
  }
  attr {
    key: "new_axis_mask"
    value {
      i: 0
    }
  }
  attr {
    key: "shrink_axis_mask"
    value {
      i: 1
    }
  }
}
node {
  name: "MultipleGridAnchorGenerator/strided_slice_1/stack_2"
  op: "Const"
  attr {
    key: "dtype"
    value {
      type: DT_INT32
    }
  }
  attr {
    key: "value"
    value {
      tensor {
        dtype: DT_INT32
        tensor_shape {
          dim {
            size: 1
          }
        }
        int_val: 1
      }
    }
  }
}
node {
  name: "MultipleGridAnchorGenerator/strided_slice_1/stack_1"
  op: "Const"
  attr {
    key: "dtype"
    value {
      type: DT_INT32
    }
  }
  attr {
    key: "value"
    value {
      tensor {
        dtype: DT_INT32
        tensor_shape {
          dim {
            size: 1
          }
        }
        int_val: 1
      }
    }
  }
}
node {
  name: "MultipleGridAnchorGenerator/strided_slice_1/stack"
  op: "Const"
  attr {
    key: "dtype"
    value {
      type: DT_INT32
    }
  }
  attr {
    key: "value"
    value {
      tensor {
        dtype: DT_INT32
        tensor_shape {
          dim {
            size: 1
          }
        }
        int_val: 0
      }
    }
  }
}
node {
  name: "MultipleGridAnchorGenerator/Shape_1"
  op: "Const"
  attr {
    key: "dtype"
    value {
      type: DT_INT32
    }
  }
  attr {
    key: "value"
    value {
      tensor {
        dtype: DT_INT32
        tensor_shape {
          dim {
            size: 2
          }
        }
      }
    }
  }
}
node {
  name: "MultipleGridAnchorGenerator/strided_slice_1"
  op: "StridedSlice"
  input: "MultipleGridAnchorGenerator/Shape_1"
  input: "MultipleGridAnchorGenerator/strided_slice_1/stack"
  input: "MultipleGridAnchorGenerator/strided_slice_1/stack_1"
  input: "MultipleGridAnchorGenerator/strided_slice_1/stack_2"
  attr {
    key: "Index"
    value {
      type: DT_INT32
    }
  }
  attr {
    key: "T"
    value {
      type: DT_INT32
    }
  }
  attr {
    key: "begin_mask"
    value {
      i: 0
    }
  }
  attr {
    key: "ellipsis_mask"
    value {
      i: 0
    }
  }
  attr {
    key: "end_mask"
    value {
      i: 0
    }
  }
  attr {
    key: "new_axis_mask"
    value {
      i: 0
    }
  }
  attr {
    key: "shrink_axis_mask"
    value {
      i: 1
    }
  }
}
node {
  name: "MultipleGridAnchorGenerator/add_18/x"
  op: "Const"
  attr {
    key: "dtype"
    value {
      type: DT_INT32
    }
  }
  attr {
    key: "value"
    value {
      tensor {
        dtype: DT_INT32
        tensor_shape {
        }
        int_val: 0
      }
    }
  }
}
node {
  name: "MultipleGridAnchorGenerator/strided_slice/stack_2"
  op: "Const"
  attr {
    key: "dtype"
    value {
      type: DT_INT32
    }
  }
  attr {
    key: "value"
    value {
      tensor {
        dtype: DT_INT32
        tensor_shape {
          dim {
            size: 1
          }
        }
        int_val: 1
      }
    }
  }
}
node {
  name: "MultipleGridAnchorGenerator/strided_slice/stack_1"
  op: "Const"
  attr {
    key: "dtype"
    value {
      type: DT_INT32
    }
  }
  attr {
    key: "value"
    value {
      tensor {
        dtype: DT_INT32
        tensor_shape {
          dim {
            size: 1
          }
        }
        int_val: 1
      }
    }
  }
}
node {
  name: "MultipleGridAnchorGenerator/strided_slice/stack"
  op: "Const"
  attr {
    key: "dtype"
    value {
      type: DT_INT32
    }
  }
  attr {
    key: "value"
    value {
      tensor {
        dtype: DT_INT32
        tensor_shape {
          dim {
            size: 1
          }
        }
        int_val: 0
      }
    }
  }
}
node {
  name: "MultipleGridAnchorGenerator/Shape"
  op: "Const"
  attr {
    key: "dtype"
    value {
      type: DT_INT32
    }
  }
  attr {
    key: "value"
    value {
      tensor {
        dtype: DT_INT32
        tensor_shape {
          dim {
            size: 2
          }
        }
      }
    }
  }
}
node {
  name: "MultipleGridAnchorGenerator/strided_slice"
  op: "StridedSlice"
  input: "MultipleGridAnchorGenerator/Shape"
  input: "MultipleGridAnchorGenerator/strided_slice/stack"
  input: "MultipleGridAnchorGenerator/strided_slice/stack_1"
  input: "MultipleGridAnchorGenerator/strided_slice/stack_2"
  attr {
    key: "Index"
    value {
      type: DT_INT32
    }
  }
  attr {
    key: "T"
    value {
      type: DT_INT32
    }
  }
  attr {
    key: "begin_mask"
    value {
      i: 0
    }
  }
  attr {
    key: "ellipsis_mask"
    value {
      i: 0
    }
  }
  attr {
    key: "end_mask"
    value {
      i: 0
    }
  }
  attr {
    key: "new_axis_mask"
    value {
      i: 0
    }
  }
  attr {
    key: "shrink_axis_mask"
    value {
      i: 1
    }
  }
}
node {
  name: "MultipleGridAnchorGenerator/add_18"
  op: "Add"
  input: "MultipleGridAnchorGenerator/add_18/x"
  input: "MultipleGridAnchorGenerator/strided_slice"
  attr {
    key: "T"
    value {
      type: DT_INT32
    }
  }
}
node {
  name: "MultipleGridAnchorGenerator/add_19"
  op: "Add"
  input: "MultipleGridAnchorGenerator/add_18"
  input: "MultipleGridAnchorGenerator/strided_slice_1"
  attr {
    key: "T"
    value {
      type: DT_INT32
    }
  }
}
node {
  name: "MultipleGridAnchorGenerator/add_20"
  op: "Add"
  input: "MultipleGridAnchorGenerator/add_19"
  input: "MultipleGridAnchorGenerator/strided_slice_2"
  attr {
    key: "T"
    value {
      type: DT_INT32
    }
  }
}
node {
  name: "MultipleGridAnchorGenerator/add_21"
  op: "Add"
  input: "MultipleGridAnchorGenerator/add_20"
  input: "MultipleGridAnchorGenerator/strided_slice_3"
  attr {
    key: "T"
    value {
      type: DT_INT32
    }
  }
}
node {
  name: "MultipleGridAnchorGenerator/add_22"
  op: "Add"
  input: "MultipleGridAnchorGenerator/add_21"
  input: "MultipleGridAnchorGenerator/strided_slice_4"
  attr {
    key: "T"
    value {
      type: DT_INT32
    }
  }
}
node {
  name: "MultipleGridAnchorGenerator/add_23"
  op: "Add"
  input: "MultipleGridAnchorGenerator/add_22"
  input: "MultipleGridAnchorGenerator/strided_slice_5"
  attr {
    key: "T"
    value {
      type: DT_INT32
    }
  }
}
node {
  name: "MultipleGridAnchorGenerator/assert_equal/Equal"
  op: "Equal"
  input: "MultipleGridAnchorGenerator/assert_equal/x"
  input: "MultipleGridAnchorGenerator/add_23"
  attr {
    key: "T"
    value {
      type: DT_INT32
    }
  }
}
node {
  name: "MultipleGridAnchorGenerator/assert_equal/All"
  op: "All"
  input: "MultipleGridAnchorGenerator/assert_equal/Equal"
  input: "MultipleGridAnchorGenerator/assert_equal/Const"
  attr {
    key: "Tidx"
    value {
      type: DT_INT32
    }
  }
  attr {
    key: "keep_dims"
    value {
      b: false
    }
  }
}
node {
  name: "MultipleGridAnchorGenerator/assert_equal/Assert/Assert"
  op: "Assert"
  input: "MultipleGridAnchorGenerator/assert_equal/All"
  input: "MultipleGridAnchorGenerator/assert_equal/Assert/Assert/data_0"
  input: "MultipleGridAnchorGenerator/assert_equal/Assert/Assert/data_1"
  input: "MultipleGridAnchorGenerator/assert_equal/Assert/Assert/data_2"
  input: "MultipleGridAnchorGenerator/assert_equal/x"
  input: "MultipleGridAnchorGenerator/assert_equal/Assert/Assert/data_4"
  input: "MultipleGridAnchorGenerator/add_23"
  attr {
    key: "T"
    value {
      list {
        type: DT_STRING
        type: DT_STRING
        type: DT_STRING
        type: DT_INT32
        type: DT_STRING
        type: DT_INT32
      }
    }
  }
  attr {
    key: "summarize"
    value {
      i: 3
    }
  }
}
node {
  name: "MultipleGridAnchorGenerator/concat_5/axis"
  op: "Const"
  attr {
    key: "dtype"
    value {
      type: DT_INT32
    }
  }
  attr {
    key: "value"
    value {
      tensor {
        dtype: DT_INT32
        tensor_shape {
        }
        int_val: 1
      }
    }
  }
}
node {
  name: "MultipleGridAnchorGenerator/mul_60/x"
  op: "Const"
  attr {
    key: "dtype"
    value {
      type: DT_FLOAT
    }
  }
  attr {
    key: "value"
    value {
      tensor {
        dtype: DT_FLOAT
        tensor_shape {
        }
        float_val: 0.5
      }
    }
  }
}
node {
  name: "MultipleGridAnchorGenerator/mul_59/x"
  op: "Const"
  attr {
    key: "dtype"
    value {
      type: DT_FLOAT
    }
  }
  attr {
    key: "value"
    value {
      tensor {
        dtype: DT_FLOAT
        tensor_shape {
        }
        float_val: 0.5
      }
    }
  }
}
node {
  name: "MultipleGridAnchorGenerator/Reshape_11/shape"
  op: "Const"
  attr {
    key: "dtype"
    value {
      type: DT_INT32
    }
  }
  attr {
    key: "value"
    value {
      tensor {
        dtype: DT_INT32
        tensor_shape {
          dim {
            size: 2
          }
        }
      }
    }
  }
}
node {
  name: "MultipleGridAnchorGenerator/Reshape_10/shape"
  op: "Const"
  attr {
    key: "dtype"
    value {
      type: DT_INT32
    }
  }
  attr {
    key: "value"
    value {
      tensor {
        dtype: DT_INT32
        tensor_shape {
          dim {
            size: 2
          }
        }
      }
    }
  }
}
node {
  name: "MultipleGridAnchorGenerator/Meshgrid_17/ExpandedShape_1/concat/axis"
  op: "Const"
  attr {
    key: "dtype"
    value {
      type: DT_INT32
    }
  }
  attr {
    key: "value"
    value {
      tensor {
        dtype: DT_INT32
        tensor_shape {
        }
        int_val: 0
      }
    }
  }
}
node {
  name: "MultipleGridAnchorGenerator/Meshgrid_17/ExpandedShape_1/Slice_1/size"
  op: "Const"
  attr {
    key: "dtype"
    value {
      type: DT_INT32
    }
  }
  attr {
    key: "value"
    value {
      tensor {
        dtype: DT_INT32
        tensor_shape {
          dim {
            size: 1
          }
        }
        int_val: -1
      }
    }
  }
}
node {
  name: "MultipleGridAnchorGenerator/Meshgrid_17/ExpandedShape_1/ones/Const"
  op: "Const"
  attr {
    key: "dtype"
    value {
      type: DT_INT32
    }
  }
  attr {
    key: "value"
    value {
      tensor {
        dtype: DT_INT32
        tensor_shape {
        }
        int_val: 1
      }
    }
  }
}
node {
  name: "MultipleGridAnchorGenerator/Meshgrid_17/ExpandedShape_1/Reshape/shape"
  op: "Const"
  attr {
    key: "dtype"
    value {
      type: DT_INT32
    }
  }
  attr {
    key: "value"
    value {
      tensor {
        dtype: DT_INT32
        tensor_shape {
          dim {
            size: 1
          }
        }
        int_val: 1
      }
    }
  }
}
node {
  name: "MultipleGridAnchorGenerator/Meshgrid_17/ExpandedShape_1/Slice/begin"
  op: "Const"
  attr {
    key: "dtype"
    value {
      type: DT_INT32
    }
  }
  attr {
    key: "value"
    value {
      tensor {
        dtype: DT_INT32
        tensor_shape {
          dim {
            size: 1
          }
        }
        int_val: 0
      }
    }
  }
}
node {
  name: "MultipleGridAnchorGenerator/Meshgrid_17/ExpandedShape_1/ExpandDims/dim"
  op: "Const"
  attr {
    key: "dtype"
    value {
      type: DT_INT32
    }
  }
  attr {
    key: "value"
    value {
      tensor {
        dtype: DT_INT32
        tensor_shape {
        }
        int_val: 0
      }
    }
  }
}
node {
  name: "MultipleGridAnchorGenerator/Meshgrid_17/Rank_2"
  op: "Const"
  attr {
    key: "dtype"
    value {
      type: DT_INT32
    }
  }
  attr {
    key: "value"
    value {
      tensor {
        dtype: DT_INT32
        tensor_shape {
        }
        int_val: 1
      }
    }
  }
}
node {
  name: "MultipleGridAnchorGenerator/Meshgrid_17/ExpandedShape_1/Reshape"
  op: "Reshape"
  input: "MultipleGridAnchorGenerator/Meshgrid_17/Rank_2"
  input: "MultipleGridAnchorGenerator/Meshgrid_17/ExpandedShape_1/Reshape/shape"
  attr {
    key: "T"
    value {
      type: DT_INT32
    }
  }
  attr {
    key: "Tshape"
    value {
      type: DT_INT32
    }
  }
}
node {
  name: "MultipleGridAnchorGenerator/Meshgrid_17/ExpandedShape_1/ones"
  op: "Fill"
  input: "MultipleGridAnchorGenerator/Meshgrid_17/ExpandedShape_1/Reshape"
  input: "MultipleGridAnchorGenerator/Meshgrid_17/ExpandedShape_1/ones/Const"
  attr {
    key: "T"
    value {
      type: DT_INT32
    }
  }
  attr {
    key: "index_type"
    value {
      type: DT_INT32
    }
  }
}
node {
  name: "MultipleGridAnchorGenerator/Meshgrid_17/Rank_1"
  op: "Const"
  attr {
    key: "dtype"
    value {
      type: DT_INT32
    }
  }
  attr {
    key: "value"
    value {
      tensor {
        dtype: DT_INT32
        tensor_shape {
        }
        int_val: 2
      }
    }
  }
}
node {
  name: "MultipleGridAnchorGenerator/Meshgrid_17/ExpandedShape_1/ExpandDims"
  op: "ExpandDims"
  input: "MultipleGridAnchorGenerator/Meshgrid_17/Rank_1"
  input: "MultipleGridAnchorGenerator/Meshgrid_17/ExpandedShape_1/ExpandDims/dim"
  attr {
    key: "T"
    value {
      type: DT_INT32
    }
  }
  attr {
    key: "Tdim"
    value {
      type: DT_INT32
    }
  }
}
node {
  name: "MultipleGridAnchorGenerator/Meshgrid_17/Shape_1"
  op: "Const"
  attr {
    key: "dtype"
    value {
      type: DT_INT32
    }
  }
  attr {
    key: "value"
    value {
      tensor {
        dtype: DT_INT32
        tensor_shape {
          dim {
            size: 2
          }
        }
      }
    }
  }
}
node {
  name: "MultipleGridAnchorGenerator/Meshgrid_17/ExpandedShape_1/Slice_1"
  op: "Slice"
  input: "MultipleGridAnchorGenerator/Meshgrid_17/Shape_1"
  input: "MultipleGridAnchorGenerator/Meshgrid_17/ExpandedShape_1/ExpandDims"
  input: "MultipleGridAnchorGenerator/Meshgrid_17/ExpandedShape_1/Slice_1/size"
  attr {
    key: "Index"
    value {
      type: DT_INT32
    }
  }
  attr {
    key: "T"
    value {
      type: DT_INT32
    }
  }
}
node {
  name: "MultipleGridAnchorGenerator/Meshgrid_17/ExpandedShape_1/Slice"
  op: "Slice"
  input: "MultipleGridAnchorGenerator/Meshgrid_17/Shape_1"
  input: "MultipleGridAnchorGenerator/Meshgrid_17/ExpandedShape_1/Slice/begin"
  input: "MultipleGridAnchorGenerator/Meshgrid_17/ExpandedShape_1/ExpandDims"
  attr {
    key: "Index"
    value {
      type: DT_INT32
    }
  }
  attr {
    key: "T"
    value {
      type: DT_INT32
    }
  }
}
node {
  name: "MultipleGridAnchorGenerator/Meshgrid_17/ExpandedShape_1/concat"
  op: "ConcatV2"
  input: "MultipleGridAnchorGenerator/Meshgrid_17/ExpandedShape_1/Slice"
  input: "MultipleGridAnchorGenerator/Meshgrid_17/ExpandedShape_1/ones"
  input: "MultipleGridAnchorGenerator/Meshgrid_17/ExpandedShape_1/Slice_1"
  input: "MultipleGridAnchorGenerator/Meshgrid_17/ExpandedShape_1/concat/axis"
  attr {
    key: "N"
    value {
      i: 3
    }
  }
  attr {
    key: "T"
    value {
      type: DT_INT32
    }
  }
  attr {
    key: "Tidx"
    value {
      type: DT_INT32
    }
  }
}
node {
  name: "MultipleGridAnchorGenerator/Meshgrid_17/ExpandedShape/concat/axis"
  op: "Const"
  attr {
    key: "dtype"
    value {
      type: DT_INT32
    }
  }
  attr {
    key: "value"
    value {
      tensor {
        dtype: DT_INT32
        tensor_shape {
        }
        int_val: 0
      }
    }
  }
}
node {
  name: "MultipleGridAnchorGenerator/Meshgrid_17/ExpandedShape/Slice_1/size"
  op: "Const"
  attr {
    key: "dtype"
    value {
      type: DT_INT32
    }
  }
  attr {
    key: "value"
    value {
      tensor {
        dtype: DT_INT32
        tensor_shape {
          dim {
            size: 1
          }
        }
        int_val: -1
      }
    }
  }
}
node {
  name: "MultipleGridAnchorGenerator/Meshgrid_17/ExpandedShape/ones/Const"
  op: "Const"
  attr {
    key: "dtype"
    value {
      type: DT_INT32
    }
  }
  attr {
    key: "value"
    value {
      tensor {
        dtype: DT_INT32
        tensor_shape {
        }
        int_val: 1
      }
    }
  }
}
node {
  name: "MultipleGridAnchorGenerator/Meshgrid_17/ExpandedShape/Reshape/shape"
  op: "Const"
  attr {
    key: "dtype"
    value {
      type: DT_INT32
    }
  }
  attr {
    key: "value"
    value {
      tensor {
        dtype: DT_INT32
        tensor_shape {
          dim {
            size: 1
          }
        }
        int_val: 1
      }
    }
  }
}
node {
  name: "MultipleGridAnchorGenerator/Meshgrid_17/ExpandedShape/Slice/begin"
  op: "Const"
  attr {
    key: "dtype"
    value {
      type: DT_INT32
    }
  }
  attr {
    key: "value"
    value {
      tensor {
        dtype: DT_INT32
        tensor_shape {
          dim {
            size: 1
          }
        }
        int_val: 0
      }
    }
  }
}
node {
  name: "MultipleGridAnchorGenerator/Meshgrid_17/ExpandedShape/ExpandDims/dim"
  op: "Const"
  attr {
    key: "dtype"
    value {
      type: DT_INT32
    }
  }
  attr {
    key: "value"
    value {
      tensor {
        dtype: DT_INT32
        tensor_shape {
        }
        int_val: 0
      }
    }
  }
}
node {
  name: "MultipleGridAnchorGenerator/Meshgrid_17/ExpandedShape/ExpandDims/input"
  op: "Const"
  attr {
    key: "dtype"
    value {
      type: DT_INT32
    }
  }
  attr {
    key: "value"
    value {
      tensor {
        dtype: DT_INT32
        tensor_shape {
        }
        int_val: 0
      }
    }
  }
}
node {
  name: "MultipleGridAnchorGenerator/Meshgrid_17/ExpandedShape/ExpandDims"
  op: "ExpandDims"
  input: "MultipleGridAnchorGenerator/Meshgrid_17/ExpandedShape/ExpandDims/input"
  input: "MultipleGridAnchorGenerator/Meshgrid_17/ExpandedShape/ExpandDims/dim"
  attr {
    key: "T"
    value {
      type: DT_INT32
    }
  }
  attr {
    key: "Tdim"
    value {
      type: DT_INT32
    }
  }
}
node {
  name: "MultipleGridAnchorGenerator/Meshgrid_17/Rank"
  op: "Const"
  attr {
    key: "dtype"
    value {
      type: DT_INT32
    }
  }
  attr {
    key: "value"
    value {
      tensor {
        dtype: DT_INT32
        tensor_shape {
        }
        int_val: 2
      }
    }
  }
}
node {
  name: "MultipleGridAnchorGenerator/Meshgrid_17/ExpandedShape/Reshape"
  op: "Reshape"
  input: "MultipleGridAnchorGenerator/Meshgrid_17/Rank"
  input: "MultipleGridAnchorGenerator/Meshgrid_17/ExpandedShape/Reshape/shape"
  attr {
    key: "T"
    value {
      type: DT_INT32
    }
  }
  attr {
    key: "Tshape"
    value {
      type: DT_INT32
    }
  }
}
node {
  name: "MultipleGridAnchorGenerator/Meshgrid_17/ExpandedShape/ones"
  op: "Fill"
  input: "MultipleGridAnchorGenerator/Meshgrid_17/ExpandedShape/Reshape"
  input: "MultipleGridAnchorGenerator/Meshgrid_17/ExpandedShape/ones/Const"
  attr {
    key: "T"
    value {
      type: DT_INT32
    }
  }
  attr {
    key: "index_type"
    value {
      type: DT_INT32
    }
  }
}
node {
  name: "MultipleGridAnchorGenerator/Meshgrid_17/Shape"
  op: "Const"
  attr {
    key: "dtype"
    value {
      type: DT_INT32
    }
  }
  attr {
    key: "value"
    value {
      tensor {
        dtype: DT_INT32
        tensor_shape {
          dim {
            size: 1
          }
        }
        int_val: 6
      }
    }
  }
}
node {
  name: "MultipleGridAnchorGenerator/Meshgrid_17/ExpandedShape/Slice_1"
  op: "Slice"
  input: "MultipleGridAnchorGenerator/Meshgrid_17/Shape"
  input: "MultipleGridAnchorGenerator/Meshgrid_17/ExpandedShape/ExpandDims"
  input: "MultipleGridAnchorGenerator/Meshgrid_17/ExpandedShape/Slice_1/size"
  attr {
    key: "Index"
    value {
      type: DT_INT32
    }
  }
  attr {
    key: "T"
    value {
      type: DT_INT32
    }
  }
}
node {
  name: "MultipleGridAnchorGenerator/Meshgrid_17/ExpandedShape/Slice"
  op: "Slice"
  input: "MultipleGridAnchorGenerator/Meshgrid_17/Shape"
  input: "MultipleGridAnchorGenerator/Meshgrid_17/ExpandedShape/Slice/begin"
  input: "MultipleGridAnchorGenerator/Meshgrid_17/ExpandedShape/ExpandDims"
  attr {
    key: "Index"
    value {
      type: DT_INT32
    }
  }
  attr {
    key: "T"
    value {
      type: DT_INT32
    }
  }
}
node {
  name: "MultipleGridAnchorGenerator/Meshgrid_17/ExpandedShape/concat"
  op: "ConcatV2"
  input: "MultipleGridAnchorGenerator/Meshgrid_17/ExpandedShape/Slice"
  input: "MultipleGridAnchorGenerator/Meshgrid_17/ExpandedShape/ones"
  input: "MultipleGridAnchorGenerator/Meshgrid_17/ExpandedShape/Slice_1"
  input: "MultipleGridAnchorGenerator/Meshgrid_17/ExpandedShape/concat/axis"
  attr {
    key: "N"
    value {
      i: 3
    }
  }
  attr {
    key: "T"
    value {
      type: DT_INT32
    }
  }
  attr {
    key: "Tidx"
    value {
      type: DT_INT32
    }
  }
}
node {
  name: "MultipleGridAnchorGenerator/Meshgrid_16/ExpandedShape_1/concat/axis"
  op: "Const"
  attr {
    key: "dtype"
    value {
      type: DT_INT32
    }
  }
  attr {
    key: "value"
    value {
      tensor {
        dtype: DT_INT32
        tensor_shape {
        }
        int_val: 0
      }
    }
  }
}
node {
  name: "MultipleGridAnchorGenerator/Meshgrid_16/ExpandedShape_1/Slice_1/size"
  op: "Const"
  attr {
    key: "dtype"
    value {
      type: DT_INT32
    }
  }
  attr {
    key: "value"
    value {
      tensor {
        dtype: DT_INT32
        tensor_shape {
          dim {
            size: 1
          }
        }
        int_val: -1
      }
    }
  }
}
node {
  name: "MultipleGridAnchorGenerator/Meshgrid_16/ExpandedShape_1/ones/Const"
  op: "Const"
  attr {
    key: "dtype"
    value {
      type: DT_INT32
    }
  }
  attr {
    key: "value"
    value {
      tensor {
        dtype: DT_INT32
        tensor_shape {
        }
        int_val: 1
      }
    }
  }
}
node {
  name: "MultipleGridAnchorGenerator/Meshgrid_16/ExpandedShape_1/Reshape/shape"
  op: "Const"
  attr {
    key: "dtype"
    value {
      type: DT_INT32
    }
  }
  attr {
    key: "value"
    value {
      tensor {
        dtype: DT_INT32
        tensor_shape {
          dim {
            size: 1
          }
        }
        int_val: 1
      }
    }
  }
}
node {
  name: "MultipleGridAnchorGenerator/Meshgrid_16/ExpandedShape_1/Slice/begin"
  op: "Const"
  attr {
    key: "dtype"
    value {
      type: DT_INT32
    }
  }
  attr {
    key: "value"
    value {
      tensor {
        dtype: DT_INT32
        tensor_shape {
          dim {
            size: 1
          }
        }
        int_val: 0
      }
    }
  }
}
node {
  name: "MultipleGridAnchorGenerator/Meshgrid_16/ExpandedShape_1/ExpandDims/dim"
  op: "Const"
  attr {
    key: "dtype"
    value {
      type: DT_INT32
    }
  }
  attr {
    key: "value"
    value {
      tensor {
        dtype: DT_INT32
        tensor_shape {
        }
        int_val: 0
      }
    }
  }
}
node {
  name: "MultipleGridAnchorGenerator/Meshgrid_16/Rank_2"
  op: "Const"
  attr {
    key: "dtype"
    value {
      type: DT_INT32
    }
  }
  attr {
    key: "value"
    value {
      tensor {
        dtype: DT_INT32
        tensor_shape {
        }
        int_val: 1
      }
    }
  }
}
node {
  name: "MultipleGridAnchorGenerator/Meshgrid_16/ExpandedShape_1/Reshape"
  op: "Reshape"
  input: "MultipleGridAnchorGenerator/Meshgrid_16/Rank_2"
  input: "MultipleGridAnchorGenerator/Meshgrid_16/ExpandedShape_1/Reshape/shape"
  attr {
    key: "T"
    value {
      type: DT_INT32
    }
  }
  attr {
    key: "Tshape"
    value {
      type: DT_INT32
    }
  }
}
node {
  name: "MultipleGridAnchorGenerator/Meshgrid_16/ExpandedShape_1/ones"
  op: "Fill"
  input: "MultipleGridAnchorGenerator/Meshgrid_16/ExpandedShape_1/Reshape"
  input: "MultipleGridAnchorGenerator/Meshgrid_16/ExpandedShape_1/ones/Const"
  attr {
    key: "T"
    value {
      type: DT_INT32
    }
  }
  attr {
    key: "index_type"
    value {
      type: DT_INT32
    }
  }
}
node {
  name: "MultipleGridAnchorGenerator/Meshgrid_16/Rank_1"
  op: "Const"
  attr {
    key: "dtype"
    value {
      type: DT_INT32
    }
  }
  attr {
    key: "value"
    value {
      tensor {
        dtype: DT_INT32
        tensor_shape {
        }
        int_val: 2
      }
    }
  }
}
node {
  name: "MultipleGridAnchorGenerator/Meshgrid_16/ExpandedShape_1/ExpandDims"
  op: "ExpandDims"
  input: "MultipleGridAnchorGenerator/Meshgrid_16/Rank_1"
  input: "MultipleGridAnchorGenerator/Meshgrid_16/ExpandedShape_1/ExpandDims/dim"
  attr {
    key: "T"
    value {
      type: DT_INT32
    }
  }
  attr {
    key: "Tdim"
    value {
      type: DT_INT32
    }
  }
}
node {
  name: "MultipleGridAnchorGenerator/Meshgrid_16/Shape_1"
  op: "Const"
  attr {
    key: "dtype"
    value {
      type: DT_INT32
    }
  }
  attr {
    key: "value"
    value {
      tensor {
        dtype: DT_INT32
        tensor_shape {
          dim {
            size: 2
          }
        }
      }
    }
  }
}
node {
  name: "MultipleGridAnchorGenerator/Meshgrid_16/ExpandedShape_1/Slice_1"
  op: "Slice"
  input: "MultipleGridAnchorGenerator/Meshgrid_16/Shape_1"
  input: "MultipleGridAnchorGenerator/Meshgrid_16/ExpandedShape_1/ExpandDims"
  input: "MultipleGridAnchorGenerator/Meshgrid_16/ExpandedShape_1/Slice_1/size"
  attr {
    key: "Index"
    value {
      type: DT_INT32
    }
  }
  attr {
    key: "T"
    value {
      type: DT_INT32
    }
  }
}
node {
  name: "MultipleGridAnchorGenerator/Meshgrid_16/ExpandedShape_1/Slice"
  op: "Slice"
  input: "MultipleGridAnchorGenerator/Meshgrid_16/Shape_1"
  input: "MultipleGridAnchorGenerator/Meshgrid_16/ExpandedShape_1/Slice/begin"
  input: "MultipleGridAnchorGenerator/Meshgrid_16/ExpandedShape_1/ExpandDims"
  attr {
    key: "Index"
    value {
      type: DT_INT32
    }
  }
  attr {
    key: "T"
    value {
      type: DT_INT32
    }
  }
}
node {
  name: "MultipleGridAnchorGenerator/Meshgrid_16/ExpandedShape_1/concat"
  op: "ConcatV2"
  input: "MultipleGridAnchorGenerator/Meshgrid_16/ExpandedShape_1/Slice"
  input: "MultipleGridAnchorGenerator/Meshgrid_16/ExpandedShape_1/ones"
  input: "MultipleGridAnchorGenerator/Meshgrid_16/ExpandedShape_1/Slice_1"
  input: "MultipleGridAnchorGenerator/Meshgrid_16/ExpandedShape_1/concat/axis"
  attr {
    key: "N"
    value {
      i: 3
    }
  }
  attr {
    key: "T"
    value {
      type: DT_INT32
    }
  }
  attr {
    key: "Tidx"
    value {
      type: DT_INT32
    }
  }
}
node {
  name: "MultipleGridAnchorGenerator/Meshgrid_16/ExpandedShape/concat/axis"
  op: "Const"
  attr {
    key: "dtype"
    value {
      type: DT_INT32
    }
  }
  attr {
    key: "value"
    value {
      tensor {
        dtype: DT_INT32
        tensor_shape {
        }
        int_val: 0
      }
    }
  }
}
node {
  name: "MultipleGridAnchorGenerator/Meshgrid_16/ExpandedShape/Slice_1/size"
  op: "Const"
  attr {
    key: "dtype"
    value {
      type: DT_INT32
    }
  }
  attr {
    key: "value"
    value {
      tensor {
        dtype: DT_INT32
        tensor_shape {
          dim {
            size: 1
          }
        }
        int_val: -1
      }
    }
  }
}
node {
  name: "MultipleGridAnchorGenerator/Meshgrid_16/ExpandedShape/ones/Const"
  op: "Const"
  attr {
    key: "dtype"
    value {
      type: DT_INT32
    }
  }
  attr {
    key: "value"
    value {
      tensor {
        dtype: DT_INT32
        tensor_shape {
        }
        int_val: 1
      }
    }
  }
}
node {
  name: "MultipleGridAnchorGenerator/Meshgrid_16/ExpandedShape/Reshape/shape"
  op: "Const"
  attr {
    key: "dtype"
    value {
      type: DT_INT32
    }
  }
  attr {
    key: "value"
    value {
      tensor {
        dtype: DT_INT32
        tensor_shape {
          dim {
            size: 1
          }
        }
        int_val: 1
      }
    }
  }
}
node {
  name: "MultipleGridAnchorGenerator/Meshgrid_16/ExpandedShape/Slice/begin"
  op: "Const"
  attr {
    key: "dtype"
    value {
      type: DT_INT32
    }
  }
  attr {
    key: "value"
    value {
      tensor {
        dtype: DT_INT32
        tensor_shape {
          dim {
            size: 1
          }
        }
        int_val: 0
      }
    }
  }
}
node {
  name: "MultipleGridAnchorGenerator/Meshgrid_16/ExpandedShape/ExpandDims/dim"
  op: "Const"
  attr {
    key: "dtype"
    value {
      type: DT_INT32
    }
  }
  attr {
    key: "value"
    value {
      tensor {
        dtype: DT_INT32
        tensor_shape {
        }
        int_val: 0
      }
    }
  }
}
node {
…
  attr {
    key: "Tparams"
    value {
      type: DT_FLOAT
    }
  }
}
node {
  name: "Postprocessor/BatchMultiClassNonMaxSuppression/map/while/MultiClassNonMaxSuppression/ClipToWindow/Gather/GatherV2_1"
  op: "GatherV2"
  input: "Postprocessor/BatchMultiClassNonMaxSuppression/map/while/MultiClassNonMaxSuppression/SortByField/Gather/GatherV2_1"
  input: "Postprocessor/BatchMultiClassNonMaxSuppression/map/while/MultiClassNonMaxSuppression/ClipToWindow/Cast"
  input: "Postprocessor/BatchMultiClassNonMaxSuppression/map/while/MultiClassNonMaxSuppression/ClipToWindow/Gather/GatherV2_1/axis"
  attr {
    key: "Taxis"
    value {
      type: DT_INT32
    }
  }
  attr {
    key: "Tindices"
    value {
      type: DT_INT32
    }
  }
  attr {
    key: "Tparams"
    value {
      type: DT_FLOAT
    }
  }
}
node {
  name: "Postprocessor/BatchMultiClassNonMaxSuppression/map/while/MultiClassNonMaxSuppression/Select_4"
  op: "Select"
  input: "Postprocessor/BatchMultiClassNonMaxSuppression/map/while/MultiClassNonMaxSuppression/Cast"
  input: "Postprocessor/BatchMultiClassNonMaxSuppression/map/while/MultiClassNonMaxSuppression/ClipToWindow/Gather/GatherV2_1"
  input: "Postprocessor/BatchMultiClassNonMaxSuppression/map/while/MultiClassNonMaxSuppression/mul_4"
  attr {
    key: "T"
    value {
      type: DT_FLOAT
    }
  }
}
node {
  name: "Postprocessor/BatchMultiClassNonMaxSuppression/map/while/MultiClassNonMaxSuppression/SortByField_1/Size"
  op: "Size"
  input: "Postprocessor/BatchMultiClassNonMaxSuppression/map/while/MultiClassNonMaxSuppression/Select_4"
  attr {
    key: "T"
    value {
      type: DT_FLOAT
    }
  }
  attr {
    key: "out_type"
    value {
      type: DT_INT32
    }
  }
}
node {
  name: "Postprocessor/BatchMultiClassNonMaxSuppression/map/while/MultiClassNonMaxSuppression/SortByField_1/Equal"
  op: "Equal"
  input: "Postprocessor/BatchMultiClassNonMaxSuppression/map/while/MultiClassNonMaxSuppression/SortByField_1/strided_slice"
  input: "Postprocessor/BatchMultiClassNonMaxSuppression/map/while/MultiClassNonMaxSuppression/SortByField_1/Size"
  attr {
    key: "T"
    value {
      type: DT_INT32
    }
  }
}
node {
  name: "Postprocessor/BatchMultiClassNonMaxSuppression/map/while/MultiClassNonMaxSuppression/SortByField_1/Assert/Assert"
  op: "Assert"
  input: "Postprocessor/BatchMultiClassNonMaxSuppression/map/while/MultiClassNonMaxSuppression/SortByField_1/Equal"
  input: "Postprocessor/BatchMultiClassNonMaxSuppression/map/while/MultiClassNonMaxSuppression/SortByField_1/Assert/Assert/data_0"
  input: "Postprocessor/BatchMultiClassNonMaxSuppression/map/while/MultiClassNonMaxSuppression/SortByField_1/Size"
  input: "Postprocessor/BatchMultiClassNonMaxSuppression/map/while/MultiClassNonMaxSuppression/SortByField_1/strided_slice"
  attr {
    key: "T"
    value {
      list {
        type: DT_STRING
        type: DT_INT32
        type: DT_INT32
      }
    }
  }
  attr {
    key: "summarize"
    value {
      i: 3
    }
  }
}
node {
  name: "Postprocessor/BatchMultiClassNonMaxSuppression/map/while/MultiClassNonMaxSuppression/SortByField_1/TopKV2"
  op: "TopKV2"
  input: "Postprocessor/BatchMultiClassNonMaxSuppression/map/while/MultiClassNonMaxSuppression/Select_4"
  input: "Postprocessor/BatchMultiClassNonMaxSuppression/map/while/MultiClassNonMaxSuppression/SortByField_1/strided_slice"
  input: "^Postprocessor/BatchMultiClassNonMaxSuppression/map/while/MultiClassNonMaxSuppression/SortByField_1/Assert/Assert"
  attr {
    key: "T"
    value {
      type: DT_FLOAT
    }
  }
  attr {
    key: "sorted"
    value {
      b: true
    }
  }
}
node {
  name: "Postprocessor/BatchMultiClassNonMaxSuppression/map/while/MultiClassNonMaxSuppression/SortByField_1/Gather/GatherV2_4"
  op: "GatherV2"
  input: "Postprocessor/BatchMultiClassNonMaxSuppression/map/while/MultiClassNonMaxSuppression/ClipToWindow/Gather/GatherV2_4"
  input: "Postprocessor/BatchMultiClassNonMaxSuppression/map/while/MultiClassNonMaxSuppression/SortByField_1/TopKV2:1"
  input: "Postprocessor/BatchMultiClassNonMaxSuppression/map/while/MultiClassNonMaxSuppression/SortByField_1/Gather/GatherV2_4/axis"
  attr {
    key: "Taxis"
    value {
      type: DT_INT32
    }
  }
  attr {
    key: "Tindices"
    value {
      type: DT_INT32
    }
  }
  attr {
    key: "Tparams"
    value {
      type: DT_FLOAT
    }
  }
}
node {
  name: "Postprocessor/BatchMultiClassNonMaxSuppression/map/while/MultiClassNonMaxSuppression/Shape_10"
  op: "Shape"
  input: "Postprocessor/BatchMultiClassNonMaxSuppression/map/while/MultiClassNonMaxSuppression/SortByField_1/Gather/GatherV2_4"
  attr {
    key: "T"
    value {
      type: DT_FLOAT
    }
  }
  attr {
    key: "out_type"
    value {
      type: DT_INT32
    }
  }
}
node {
  name: "Postprocessor/BatchMultiClassNonMaxSuppression/map/while/MultiClassNonMaxSuppression/strided_slice_10"
  op: "StridedSlice"
  input: "Postprocessor/BatchMultiClassNonMaxSuppression/map/while/MultiClassNonMaxSuppression/Shape_10"
  input: "Postprocessor/BatchMultiClassNonMaxSuppression/map/while/MultiClassNonMaxSuppression/strided_slice_10/stack"
  input: "Postprocessor/BatchMultiClassNonMaxSuppression/map/while/MultiClassNonMaxSuppression/strided_slice_10/stack_1"
  input: "Postprocessor/BatchMultiClassNonMaxSuppression/map/while/MultiClassNonMaxSuppression/strided_slice_10/stack_2"
  attr {
    key: "Index"
    value {
      type: DT_INT32
    }
  }
  attr {
    key: "T"
    value {
      type: DT_INT32
    }
  }
  attr {
    key: "begin_mask"
    value {
      i: 0
    }
  }
  attr {
    key: "ellipsis_mask"
    value {
      i: 0
    }
  }
  attr {
    key: "end_mask"
    value {
      i: 0
    }
  }
  attr {
    key: "new_axis_mask"
    value {
      i: 0
    }
  }
  attr {
    key: "shrink_axis_mask"
    value {
      i: 1
    }
  }
}
node {
  name: "Postprocessor/BatchMultiClassNonMaxSuppression/map/while/MultiClassNonMaxSuppression/Minimum_4"
  op: "Minimum"
  input: "Postprocessor/BatchMultiClassNonMaxSuppression/map/while/MultiClassNonMaxSuppression/Minimum_4/x"
  input: "Postprocessor/BatchMultiClassNonMaxSuppression/map/while/MultiClassNonMaxSuppression/strided_slice_10"
  attr {
    key: "T"
    value {
      type: DT_INT32
    }
  }
}
node {
  name: "Postprocessor/BatchMultiClassNonMaxSuppression/map/while/MultiClassNonMaxSuppression/range_4"
  op: "Range"
  input: "Postprocessor/BatchMultiClassNonMaxSuppression/map/while/MultiClassNonMaxSuppression/range_4/start"
  input: "Postprocessor/BatchMultiClassNonMaxSuppression/map/while/MultiClassNonMaxSuppression/Minimum_4"
  input: "Postprocessor/BatchMultiClassNonMaxSuppression/map/while/MultiClassNonMaxSuppression/range_4/delta"
  attr {
    key: "Tidx"
    value {
      type: DT_INT32
    }
  }
}
node {
  name: "Postprocessor/BatchMultiClassNonMaxSuppression/map/while/MultiClassNonMaxSuppression/Gather_4/GatherV2_4"
  op: "GatherV2"
  input: "Postprocessor/BatchMultiClassNonMaxSuppression/map/while/MultiClassNonMaxSuppression/SortByField_1/Gather/GatherV2_4"
  input: "Postprocessor/BatchMultiClassNonMaxSuppression/map/while/MultiClassNonMaxSuppression/range_4"
  input: "Postprocessor/BatchMultiClassNonMaxSuppression/map/while/MultiClassNonMaxSuppression/Gather_4/GatherV2_4/axis"
  attr {
    key: "Taxis"
    value {
      type: DT_INT32
    }
  }
  attr {
    key: "Tindices"
    value {
      type: DT_INT32
    }
  }
  attr {
    key: "Tparams"
    value {
      type: DT_FLOAT
    }
  }
}
node {
  name: "Postprocessor/BatchMultiClassNonMaxSuppression/map/while/MultiClassNonMaxSuppression/SortByField_1/Gather/GatherV2_1"
  op: "GatherV2"
  input: "Postprocessor/BatchMultiClassNonMaxSuppression/map/while/MultiClassNonMaxSuppression/Select_4"
  input: "Postprocessor/BatchMultiClassNonMaxSuppression/map/while/MultiClassNonMaxSuppression/SortByField_1/TopKV2:1"
  input: "Postprocessor/BatchMultiClassNonMaxSuppression/map/while/MultiClassNonMaxSuppression/SortByField_1/Gather/GatherV2_1/axis"
  attr {
    key: "Taxis"
    value {
      type: DT_INT32
    }
  }
  attr {
    key: "Tindices"
    value {
      type: DT_INT32
    }
  }
  attr {
    key: "Tparams"
    value {
      type: DT_FLOAT
    }
  }
}
node {
  name: "Postprocessor/BatchMultiClassNonMaxSuppression/map/while/MultiClassNonMaxSuppression/Gather_4/GatherV2_1"
  op: "GatherV2"
  input: "Postprocessor/BatchMultiClassNonMaxSuppression/map/while/MultiClassNonMaxSuppression/SortByField_1/Gather/GatherV2_1"
  input: "Postprocessor/BatchMultiClassNonMaxSuppression/map/while/MultiClassNonMaxSuppression/range_4"
  input: "Postprocessor/BatchMultiClassNonMaxSuppression/map/while/MultiClassNonMaxSuppression/Gather_4/GatherV2_1/axis"
  attr {
    key: "Taxis"
    value {
      type: DT_INT32
    }
  }
  attr {
    key: "Tindices"
    value {
      type: DT_INT32
    }
  }
  attr {
    key: "Tparams"
    value {
      type: DT_FLOAT
    }
  }
}
node {
  name: "Postprocessor/BatchMultiClassNonMaxSuppression/map/while/MultiClassNonMaxSuppression/GreaterEqual"
  op: "GreaterEqual"
  input: "Postprocessor/BatchMultiClassNonMaxSuppression/map/while/MultiClassNonMaxSuppression/Select_4"
  input: "Postprocessor/BatchMultiClassNonMaxSuppression/map/while/MultiClassNonMaxSuppression/GreaterEqual/y"
  attr {
    key: "T"
    value {
      type: DT_FLOAT
    }
  }
}
node {
  name: "Postprocessor/BatchMultiClassNonMaxSuppression/map/while/MultiClassNonMaxSuppression/Cast_1"
  op: "Cast"
  input: "Postprocessor/BatchMultiClassNonMaxSuppression/map/while/MultiClassNonMaxSuppression/GreaterEqual"
  attr {
    key: "DstT"
    value {
      type: DT_INT32
    }
  }
  attr {
    key: "SrcT"
    value {
      type: DT_BOOL
    }
  }
  attr {
    key: "Truncate"
    value {
      b: false
    }
  }
}
node {
  name: "Postprocessor/BatchMultiClassNonMaxSuppression/map/while/MultiClassNonMaxSuppression/Sum"
  op: "Sum"
  input: "Postprocessor/BatchMultiClassNonMaxSuppression/map/while/MultiClassNonMaxSuppression/Cast_1"
  input: "Postprocessor/BatchMultiClassNonMaxSuppression/map/while/MultiClassNonMaxSuppression/Const_1"
  attr {
    key: "T"
    value {
      type: DT_INT32
    }
  }
  attr {
    key: "Tidx"
    value {
      type: DT_INT32
    }
  }
  attr {
    key: "keep_dims"
    value {
      b: false
    }
  }
}
node {
  name: "Postprocessor/BatchMultiClassNonMaxSuppression/map/while/MultiClassNonMaxSuppression/Greater"
  op: "Greater"
  input: "Postprocessor/BatchMultiClassNonMaxSuppression/map/while/MultiClassNonMaxSuppression/Minimum_4"
  input: "Postprocessor/BatchMultiClassNonMaxSuppression/map/while/MultiClassNonMaxSuppression/Sum"
  attr {
    key: "T"
    value {
      type: DT_INT32
    }
  }
}
node {
  name: "Postprocessor/BatchMultiClassNonMaxSuppression/map/while/MultiClassNonMaxSuppression/Select_5"
  op: "Select"
  input: "Postprocessor/BatchMultiClassNonMaxSuppression/map/while/MultiClassNonMaxSuppression/Greater"
  input: "Postprocessor/BatchMultiClassNonMaxSuppression/map/while/MultiClassNonMaxSuppression/Sum"
  input: "Postprocessor/BatchMultiClassNonMaxSuppression/map/while/MultiClassNonMaxSuppression/Minimum_4"
  attr {
    key: "T"
    value {
      type: DT_INT32
    }
  }
}
node {
  name: "Postprocessor/BatchMultiClassNonMaxSuppression/map/while/TensorArrayWrite_4/TensorArrayWriteV3"
  op: "TensorArrayWriteV3"
  input: "Postprocessor/BatchMultiClassNonMaxSuppression/map/while/TensorArrayWrite_4/TensorArrayWriteV3/Enter"
  input: "Postprocessor/BatchMultiClassNonMaxSuppression/map/while/Identity_1"
  input: "Postprocessor/BatchMultiClassNonMaxSuppression/map/while/MultiClassNonMaxSuppression/Select_5"
  input: "Postprocessor/BatchMultiClassNonMaxSuppression/map/while/Identity_6"
  attr {
    key: "T"
    value {
      type: DT_INT32
    }
  }
  attr {
    key: "_class"
    value {
      list {
        s: "loc:@Postprocessor/BatchMultiClassNonMaxSuppression/map/while/MultiClassNonMaxSuppression/Select_5"
      }
    }
  }
}
node {
  name: "Postprocessor/BatchMultiClassNonMaxSuppression/map/while/NextIteration_6"
  op: "NextIteration"
  input: "Postprocessor/BatchMultiClassNonMaxSuppression/map/while/TensorArrayWrite_4/TensorArrayWriteV3"
  attr {
    key: "T"
    value {
      type: DT_FLOAT
    }
  }
}
node {
  name: "Postprocessor/BatchMultiClassNonMaxSuppression/map/while/MultiClassNonMaxSuppression/range_5"
  op: "Range"
  input: "Postprocessor/BatchMultiClassNonMaxSuppression/map/while/MultiClassNonMaxSuppression/range_5/start"
  input: "Postprocessor/BatchMultiClassNonMaxSuppression/map/while/MultiClassNonMaxSuppression/Select_5"
  input: "Postprocessor/BatchMultiClassNonMaxSuppression/map/while/MultiClassNonMaxSuppression/range_5/delta"
  attr {
    key: "Tidx"
    value {
      type: DT_INT32
    }
  }
}
node {
  name: "Postprocessor/BatchMultiClassNonMaxSuppression/map/while/MultiClassNonMaxSuppression/Gather_5/GatherV2_4"
  op: "GatherV2"
  input: "Postprocessor/BatchMultiClassNonMaxSuppression/map/while/MultiClassNonMaxSuppression/Gather_4/GatherV2_4"
  input: "Postprocessor/BatchMultiClassNonMaxSuppression/map/while/MultiClassNonMaxSuppression/range_5"
  input: "Postprocessor/BatchMultiClassNonMaxSuppression/map/while/MultiClassNonMaxSuppression/Gather_5/GatherV2_4/axis"
  attr {
    key: "Taxis"
    value {
      type: DT_INT32
    }
  }
  attr {
    key: "Tindices"
    value {
      type: DT_INT32
    }
  }
  attr {
    key: "Tparams"
    value {
      type: DT_FLOAT
    }
  }
}
node {
  name: "Postprocessor/BatchMultiClassNonMaxSuppression/map/while/PadOrClipBoxList/Shape"
  op: "Shape"
  input: "Postprocessor/BatchMultiClassNonMaxSuppression/map/while/MultiClassNonMaxSuppression/Gather_5/GatherV2_4"
  attr {
    key: "T"
    value {
      type: DT_FLOAT
    }
  }
  attr {
    key: "out_type"
    value {
      type: DT_INT32
    }
  }
}
node {
  name: "Postprocessor/BatchMultiClassNonMaxSuppression/map/while/PadOrClipBoxList/strided_slice_1"
  op: "StridedSlice"
  input: "Postprocessor/BatchMultiClassNonMaxSuppression/map/while/PadOrClipBoxList/Shape"
  input: "Postprocessor/BatchMultiClassNonMaxSuppression/map/while/PadOrClipBoxList/strided_slice_1/stack"
  input: "Postprocessor/BatchMultiClassNonMaxSuppression/map/while/PadOrClipBoxList/strided_slice_1/stack_1"
  input: "Postprocessor/BatchMultiClassNonMaxSuppression/map/while/PadOrClipBoxList/strided_slice_1/stack_2"
  attr {
    key: "Index"
    value {
      type: DT_INT32
    }
  }
  attr {
    key: "T"
    value {
      type: DT_INT32
    }
  }
  attr {
    key: "begin_mask"
    value {
      i: 0
    }
  }
  attr {
    key: "ellipsis_mask"
    value {
      i: 0
    }
  }
  attr {
    key: "end_mask"
    value {
      i: 0
    }
  }
  attr {
    key: "new_axis_mask"
    value {
      i: 0
    }
  }
  attr {
    key: "shrink_axis_mask"
    value {
      i: 1
    }
  }
}
node {
  name: "Postprocessor/BatchMultiClassNonMaxSuppression/map/while/PadOrClipBoxList/sub_1"
  op: "Sub"
  input: "Postprocessor/BatchMultiClassNonMaxSuppression/map/while/PadOrClipBoxList/strided_slice_1"
  input: "Postprocessor/BatchMultiClassNonMaxSuppression/map/while/PadOrClipBoxList/sub_1/y"
  attr {
    key: "T"
    value {
      type: DT_INT32
    }
  }
}
node {
  name: "Postprocessor/BatchMultiClassNonMaxSuppression/map/while/PadOrClipBoxList/Greater_1"
  op: "Greater"
  input: "Postprocessor/BatchMultiClassNonMaxSuppression/map/while/PadOrClipBoxList/sub_1"
  input: "Postprocessor/BatchMultiClassNonMaxSuppression/map/while/PadOrClipBoxList/Greater_1/y"
  attr {
    key: "T"
    value {
      type: DT_INT32
    }
  }
}
node {
  name: "Postprocessor/BatchMultiClassNonMaxSuppression/map/while/PadOrClipBoxList/Select_1"
  op: "Select"
  input: "Postprocessor/BatchMultiClassNonMaxSuppression/map/while/PadOrClipBoxList/Greater_1"
  input: "Postprocessor/BatchMultiClassNonMaxSuppression/map/while/PadOrClipBoxList/Select_1/t"
  input: "Postprocessor/BatchMultiClassNonMaxSuppression/map/while/PadOrClipBoxList/Select_1/e"
  attr {
    key: "T"
    value {
      type: DT_INT32
    }
  }
}
node {
  name: "Postprocessor/BatchMultiClassNonMaxSuppression/map/while/PadOrClipBoxList/strided_slice"
  op: "StridedSlice"
  input: "Postprocessor/BatchMultiClassNonMaxSuppression/map/while/PadOrClipBoxList/Shape"
  input: "Postprocessor/BatchMultiClassNonMaxSuppression/map/while/PadOrClipBoxList/strided_slice/stack"
  input: "Postprocessor/BatchMultiClassNonMaxSuppression/map/while/PadOrClipBoxList/strided_slice/stack_1"
  input: "Postprocessor/BatchMultiClassNonMaxSuppression/map/while/PadOrClipBoxList/strided_slice/stack_2"
  attr {
    key: "Index"
    value {
      type: DT_INT32
    }
  }
  attr {
    key: "T"
    value {
      type: DT_INT32
    }
  }
  attr {
    key: "begin_mask"
    value {
      i: 0
    }
  }
  attr {
    key: "ellipsis_mask"
    value {
      i: 0
    }
  }
  attr {
    key: "end_mask"
    value {
      i: 0
    }
  }
  attr {
    key: "new_axis_mask"
    value {
      i: 0
    }
  }
  attr {
    key: "shrink_axis_mask"
    value {
      i: 1
    }
  }
}
node {
  name: "Postprocessor/BatchMultiClassNonMaxSuppression/map/while/PadOrClipBoxList/sub"
  op: "Sub"
  input: "Postprocessor/BatchMultiClassNonMaxSuppression/map/while/PadOrClipBoxList/strided_slice"
  input: "Postprocessor/BatchMultiClassNonMaxSuppression/map/while/PadOrClipBoxList/sub/y"
  attr {
    key: "T"
    value {
      type: DT_INT32
    }
  }
}
node {
  name: "Postprocessor/BatchMultiClassNonMaxSuppression/map/while/PadOrClipBoxList/Greater"
  op: "Greater"
  input: "Postprocessor/BatchMultiClassNonMaxSuppression/map/while/PadOrClipBoxList/sub"
  input: "Postprocessor/BatchMultiClassNonMaxSuppression/map/while/PadOrClipBoxList/Greater/y"
  attr {
    key: "T"
    value {
      type: DT_INT32
    }
  }
}
node {
  name: "Postprocessor/BatchMultiClassNonMaxSuppression/map/while/PadOrClipBoxList/Select"
  op: "Select"
  input: "Postprocessor/BatchMultiClassNonMaxSuppression/map/while/PadOrClipBoxList/Greater"
  input: "Postprocessor/BatchMultiClassNonMaxSuppression/map/while/PadOrClipBoxList/Select/t"
  input: "Postprocessor/BatchMultiClassNonMaxSuppression/map/while/PadOrClipBoxList/Select/e"
  attr {
    key: "T"
    value {
      type: DT_INT32
    }
  }
}
node {
  name: "Postprocessor/BatchMultiClassNonMaxSuppression/map/while/PadOrClipBoxList/Slice/size"
  op: "Pack"
  input: "Postprocessor/BatchMultiClassNonMaxSuppression/map/while/PadOrClipBoxList/Select"
  input: "Postprocessor/BatchMultiClassNonMaxSuppression/map/while/PadOrClipBoxList/Select_1"
  attr {
    key: "N"
    value {
      i: 2
    }
  }
  attr {
    key: "T"
    value {
      type: DT_INT32
    }
  }
  attr {
    key: "axis"
    value {
      i: 0
    }
  }
}
node {
  name: "Postprocessor/BatchMultiClassNonMaxSuppression/map/while/PadOrClipBoxList/Slice"
  op: "Slice"
  input: "Postprocessor/BatchMultiClassNonMaxSuppression/map/while/MultiClassNonMaxSuppression/Gather_5/GatherV2_4"
  input: "Postprocessor/BatchMultiClassNonMaxSuppression/map/while/PadOrClipBoxList/zeros"
  input: "Postprocessor/BatchMultiClassNonMaxSuppression/map/while/PadOrClipBoxList/Slice/size"
  attr {
    key: "Index"
    value {
      type: DT_INT32
    }
  }
  attr {
    key: "T"
    value {
      type: DT_FLOAT
    }
  }
}
node {
  name: "Postprocessor/BatchMultiClassNonMaxSuppression/map/while/PadOrClipBoxList/Shape_1"
  op: "Shape"
  input: "Postprocessor/BatchMultiClassNonMaxSuppression/map/while/PadOrClipBoxList/Slice"
  attr {
    key: "T"
    value {
      type: DT_FLOAT
    }
  }
  attr {
    key: "out_type"
    value {
      type: DT_INT32
    }
  }
}
node {
  name: "Postprocessor/BatchMultiClassNonMaxSuppression/map/while/PadOrClipBoxList/strided_slice_3"
  op: "StridedSlice"
  input: "Postprocessor/BatchMultiClassNonMaxSuppression/map/while/PadOrClipBoxList/Shape_1"
  input: "Postprocessor/BatchMultiClassNonMaxSuppression/map/while/PadOrClipBoxList/strided_slice_3/stack"
  input: "Postprocessor/BatchMultiClassNonMaxSuppression/map/while/PadOrClipBoxList/strided_slice_3/stack_1"
  input: "Postprocessor/BatchMultiClassNonMaxSuppression/map/while/PadOrClipBoxList/strided_slice_3/stack_2"
  attr {
    key: "Index"
    value {
      type: DT_INT32
    }
  }
  attr {
    key: "T"
    value {
      type: DT_INT32
    }
  }
  attr {
    key: "begin_mask"
    value {
      i: 0
    }
  }
  attr {
    key: "ellipsis_mask"
    value {
      i: 0
    }
  }
  attr {
    key: "end_mask"
    value {
      i: 0
    }
  }
  attr {
    key: "new_axis_mask"
    value {
      i: 0
    }
  }
  attr {
    key: "shrink_axis_mask"
    value {
      i: 1
    }
  }
}
node {
  name: "Postprocessor/BatchMultiClassNonMaxSuppression/map/while/PadOrClipBoxList/sub_3"
  op: "Sub"
  input: "Postprocessor/BatchMultiClassNonMaxSuppression/map/while/PadOrClipBoxList/sub_3/x"
  input: "Postprocessor/BatchMultiClassNonMaxSuppression/map/while/PadOrClipBoxList/strided_slice_3"
  attr {
    key: "T"
    value {
      type: DT_INT32
    }
  }
}
node {
  name: "Postprocessor/BatchMultiClassNonMaxSuppression/map/while/PadOrClipBoxList/strided_slice_2"
  op: "StridedSlice"
  input: "Postprocessor/BatchMultiClassNonMaxSuppression/map/while/PadOrClipBoxList/Shape_1"
  input: "Postprocessor/BatchMultiClassNonMaxSuppression/map/while/PadOrClipBoxList/strided_slice_2/stack"
  input: "Postprocessor/BatchMultiClassNonMaxSuppression/map/while/PadOrClipBoxList/strided_slice_2/stack_1"
  input: "Postprocessor/BatchMultiClassNonMaxSuppression/map/while/PadOrClipBoxList/strided_slice_2/stack_2"
  attr {
    key: "Index"
    value {
      type: DT_INT32
    }
  }
  attr {
    key: "T"
    value {
      type: DT_INT32
    }
  }
  attr {
    key: "begin_mask"
    value {
      i: 0
    }
  }
  attr {
    key: "ellipsis_mask"
    value {
      i: 0
    }
  }
  attr {
    key: "end_mask"
    value {
      i: 0
    }
  }
  attr {
    key: "new_axis_mask"
    value {
      i: 0
    }
  }
  attr {
    key: "shrink_axis_mask"
    value {
      i: 1
    }
  }
}
node {
  name: "Postprocessor/BatchMultiClassNonMaxSuppression/map/while/PadOrClipBoxList/sub_2"
  op: "Sub"
  input: "Postprocessor/BatchMultiClassNonMaxSuppression/map/while/PadOrClipBoxList/sub_2/x"
  input: "Postprocessor/BatchMultiClassNonMaxSuppression/map/while/PadOrClipBoxList/strided_slice_2"
  attr {
    key: "T"
    value {
      type: DT_INT32
    }
  }
}
node {
  name: "Postprocessor/BatchMultiClassNonMaxSuppression/map/while/PadOrClipBoxList/stack/values_1"
  op: "Pack"
  input: "Postprocessor/BatchMultiClassNonMaxSuppression/map/while/PadOrClipBoxList/sub_2"
  input: "Postprocessor/BatchMultiClassNonMaxSuppression/map/while/PadOrClipBoxList/sub_3"
  attr {
    key: "N"
    value {
      i: 2
    }
  }
  attr {
    key: "T"
    value {
      type: DT_INT32
    }
  }
  attr {
    key: "axis"
    value {
      i: 0
    }
  }
}
node {
  name: "Postprocessor/BatchMultiClassNonMaxSuppression/map/while/PadOrClipBoxList/stack"
  op: "Pack"
  input: "Postprocessor/BatchMultiClassNonMaxSuppression/map/while/PadOrClipBoxList/zeros_1"
  input: "Postprocessor/BatchMultiClassNonMaxSuppression/map/while/PadOrClipBoxList/stack/values_1"
  attr {
    key: "N"
    value {
      i: 2
    }
  }
  attr {
    key: "T"
    value {
      type: DT_INT32
    }
  }
  attr {
    key: "axis"
    value {
      i: 1
    }
  }
}
node {
  name: "Postprocessor/BatchMultiClassNonMaxSuppression/map/while/PadOrClipBoxList/Pad"
  op: "Pad"
  input: "Postprocessor/BatchMultiClassNonMaxSuppression/map/while/PadOrClipBoxList/Slice"
  input: "Postprocessor/BatchMultiClassNonMaxSuppression/map/while/PadOrClipBoxList/stack"
  attr {
    key: "T"
    value {
      type: DT_FLOAT
    }
  }
  attr {
    key: "Tpaddings"
    value {
      type: DT_INT32
    }
  }
}
node {
  name: "Postprocessor/BatchMultiClassNonMaxSuppression/map/while/TensorArrayWrite/TensorArrayWriteV3"
  op: "TensorArrayWriteV3"
  input: "Postprocessor/BatchMultiClassNonMaxSuppression/map/while/TensorArrayWrite/TensorArrayWriteV3/Enter"
  input: "Postprocessor/BatchMultiClassNonMaxSuppression/map/while/Identity_1"
  input: "Postprocessor/BatchMultiClassNonMaxSuppression/map/while/PadOrClipBoxList/Pad"
  input: "Postprocessor/BatchMultiClassNonMaxSuppression/map/while/Identity_2"
  attr {
    key: "T"
    value {
      type: DT_FLOAT
    }
  }
  attr {
    key: "_class"
    value {
      list {
        s: "loc:@Postprocessor/BatchMultiClassNonMaxSuppression/map/while/PadOrClipBoxList/Pad"
      }
    }
  }
}
node {
  name: "Postprocessor/BatchMultiClassNonMaxSuppression/map/while/NextIteration_2"
  op: "NextIteration"
  input: "Postprocessor/BatchMultiClassNonMaxSuppression/map/while/TensorArrayWrite/TensorArrayWriteV3"
  attr {
    key: "T"
    value {
      type: DT_FLOAT
    }
  }
}
node {
  name: "Postprocessor/BatchMultiClassNonMaxSuppression/map/while/MultiClassNonMaxSuppression/Gather_5/GatherV2_1"
  op: "GatherV2"
  input: "Postprocessor/BatchMultiClassNonMaxSuppression/map/while/MultiClassNonMaxSuppression/Gather_4/GatherV2_1"
  input: "Postprocessor/BatchMultiClassNonMaxSuppression/map/while/MultiClassNonMaxSuppression/range_5"
  input: "Postprocessor/BatchMultiClassNonMaxSuppression/map/while/MultiClassNonMaxSuppression/Gather_5/GatherV2_1/axis"
  attr {
    key: "Taxis"
    value {
      type: DT_INT32
    }
  }
  attr {
    key: "Tindices"
    value {
      type: DT_INT32
    }
  }
  attr {
    key: "Tparams"
    value {
      type: DT_FLOAT
    }
  }
}
node {
  name: "Postprocessor/BatchMultiClassNonMaxSuppression/map/while/PadOrClipBoxList/Shape_2"
  op: "Shape"
  input: "Postprocessor/BatchMultiClassNonMaxSuppression/map/while/MultiClassNonMaxSuppression/Gather_5/GatherV2_1"
  attr {
    key: "T"
    value {
      type: DT_FLOAT
    }
  }
  attr {
    key: "out_type"
    value {
      type: DT_INT32
    }
  }
}
node {
  name: "Postprocessor/BatchMultiClassNonMaxSuppression/map/while/PadOrClipBoxList/strided_slice_4"
  op: "StridedSlice"
  input: "Postprocessor/BatchMultiClassNonMaxSuppression/map/while/PadOrClipBoxList/Shape_2"
  input: "Postprocessor/BatchMultiClassNonMaxSuppression/map/while/PadOrClipBoxList/strided_slice_4/stack"
  input: "Postprocessor/BatchMultiClassNonMaxSuppression/map/while/PadOrClipBoxList/strided_slice_4/stack_1"
  input: "Postprocessor/BatchMultiClassNonMaxSuppression/map/while/PadOrClipBoxList/strided_slice_4/stack_2"
  attr {
    key: "Index"
    value {
      type: DT_INT32
    }
  }
  attr {
    key: "T"
    value {
      type: DT_INT32
    }
  }
  attr {
    key: "begin_mask"
    value {
      i: 0
    }
  }
  attr {
    key: "ellipsis_mask"
    value {
      i: 0
    }
  }
  attr {
    key: "end_mask"
    value {
      i: 0
    }
  }
  attr {
    key: "new_axis_mask"
    value {
      i: 0
    }
  }
  attr {
    key: "shrink_axis_mask"
    value {
      i: 1
    }
  }
}
node {
  name: "Postprocessor/BatchMultiClassNonMaxSuppression/map/while/PadOrClipBoxList/sub_4"
  op: "Sub"
  input: "Postprocessor/BatchMultiClassNonMaxSuppression/map/while/PadOrClipBoxList/strided_slice_4"
  input: "Postprocessor/BatchMultiClassNonMaxSuppression/map/while/PadOrClipBoxList/sub_4/y"
  attr {
    key: "T"
    value {
      type: DT_INT32
    }
  }
}
node {
  name: "Postprocessor/BatchMultiClassNonMaxSuppression/map/while/PadOrClipBoxList/Greater_2"
  op: "Greater"
  input: "Postprocessor/BatchMultiClassNonMaxSuppression/map/while/PadOrClipBoxList/sub_4"
  input: "Postprocessor/BatchMultiClassNonMaxSuppression/map/while/PadOrClipBoxList/Greater_2/y"
  attr {
    key: "T"
    value {
      type: DT_INT32
    }
  }
}
node {
  name: "Postprocessor/BatchMultiClassNonMaxSuppression/map/while/PadOrClipBoxList/Select_2"
  op: "Select"
  input: "Postprocessor/BatchMultiClassNonMaxSuppression/map/while/PadOrClipBoxList/Greater_2"
  input: "Postprocessor/BatchMultiClassNonMaxSuppression/map/while/PadOrClipBoxList/Select_2/t"
  input: "Postprocessor/BatchMultiClassNonMaxSuppression/map/while/PadOrClipBoxList/Select_2/e"
  attr {
    key: "T"
    value {
      type: DT_INT32
    }
  }
}
node {
  name: "Postprocessor/BatchMultiClassNonMaxSuppression/map/while/PadOrClipBoxList/Slice_1/size"
  op: "Pack"
  input: "Postprocessor/BatchMultiClassNonMaxSuppression/map/while/PadOrClipBoxList/Select_2"
  attr {
    key: "N"
    value {
      i: 1
    }
  }
  attr {
    key: "T"
    value {
      type: DT_INT32
    }
  }
  attr {
    key: "axis"
    value {
      i: 0
    }
  }
}
node {
  name: "Postprocessor/BatchMultiClassNonMaxSuppression/map/while/PadOrClipBoxList/Slice_1"
  op: "Slice"
  input: "Postprocessor/BatchMultiClassNonMaxSuppression/map/while/MultiClassNonMaxSuppression/Gather_5/GatherV2_1"
  input: "Postprocessor/BatchMultiClassNonMaxSuppression/map/while/PadOrClipBoxList/zeros_2"
  input: "Postprocessor/BatchMultiClassNonMaxSuppression/map/while/PadOrClipBoxList/Slice_1/size"
  attr {
    key: "Index"
    value {
      type: DT_INT32
    }
  }
  attr {
    key: "T"
    value {
      type: DT_FLOAT
    }
  }
}
node {
  name: "Postprocessor/BatchMultiClassNonMaxSuppression/map/while/PadOrClipBoxList/Shape_3"
  op: "Shape"
  input: "Postprocessor/BatchMultiClassNonMaxSuppression/map/while/PadOrClipBoxList/Slice_1"
  attr {
    key: "T"
    value {
      type: DT_FLOAT
    }
  }
  attr {
    key: "out_type"
    value {
      type: DT_INT32
    }
  }
}
node {
  name: "Postprocessor/BatchMultiClassNonMaxSuppression/map/while/PadOrClipBoxList/strided_slice_5"
  op: "StridedSlice"
  input: "Postprocessor/BatchMultiClassNonMaxSuppression/map/while/PadOrClipBoxList/Shape_3"
  input: "Postprocessor/BatchMultiClassNonMaxSuppression/map/while/PadOrClipBoxList/strided_slice_5/stack"
  input: "Postprocessor/BatchMultiClassNonMaxSuppression/map/while/PadOrClipBoxList/strided_slice_5/stack_1"
  input: "Postprocessor/BatchMultiClassNonMaxSuppression/map/while/PadOrClipBoxList/strided_slice_5/stack_2"
  attr {
    key: "Index"
    value {
      type: DT_INT32
    }
  }
  attr {
    key: "T"
    value {
      type: DT_INT32
    }
  }
  attr {
    key: "begin_mask"
    value {
      i: 0
    }
  }
  attr {
    key: "ellipsis_mask"
    value {
      i: 0
    }
  }
  attr {
    key: "end_mask"
    value {
      i: 0
    }
  }
  attr {
    key: "new_axis_mask"
    value {
      i: 0
    }
  }
  attr {
    key: "shrink_axis_mask"
    value {
      i: 1
    }
  }
}
node {
  name: "Postprocessor/BatchMultiClassNonMaxSuppression/map/while/PadOrClipBoxList/sub_5"
  op: "Sub"
  input: "Postprocessor/BatchMultiClassNonMaxSuppression/map/while/PadOrClipBoxList/sub_5/x"
  input: "Postprocessor/BatchMultiClassNonMaxSuppression/map/while/PadOrClipBoxList/strided_slice_5"
  attr {
    key: "T"
    value {
      type: DT_INT32
    }
  }
}
node {
  name: "Postprocessor/BatchMultiClassNonMaxSuppression/map/while/PadOrClipBoxList/stack_1/values_1"
  op: "Pack"
  input: "Postprocessor/BatchMultiClassNonMaxSuppression/map/while/PadOrClipBoxList/sub_5"
  attr {
    key: "N"
    value {
      i: 1
    }
  }
  attr {
    key: "T"
    value {
      type: DT_INT32
    }
  }
  attr {
    key: "axis"
    value {
      i: 0
    }
  }
}
node {
  name: "Postprocessor/BatchMultiClassNonMaxSuppression/map/while/PadOrClipBoxList/stack_1"
  op: "Pack"
  input: "Postprocessor/BatchMultiClassNonMaxSuppression/map/while/PadOrClipBoxList/zeros_3"
  input: "Postprocessor/BatchMultiClassNonMaxSuppression/map/while/PadOrClipBoxList/stack_1/values_1"
  attr {
    key: "N"
    value {
      i: 2
    }
  }
  attr {
    key: "T"
    value {
      type: DT_INT32
    }
  }
  attr {
    key: "axis"
    value {
      i: 1
    }
  }
}
node {
  name: "Postprocessor/BatchMultiClassNonMaxSuppression/map/while/PadOrClipBoxList/Pad_1"
  op: "Pad"
  input: "Postprocessor/BatchMultiClassNonMaxSuppression/map/while/PadOrClipBoxList/Slice_1"
  input: "Postprocessor/BatchMultiClassNonMaxSuppression/map/while/PadOrClipBoxList/stack_1"
  attr {
    key: "T"
    value {
      type: DT_FLOAT
    }
  }
  attr {
    key: "Tpaddings"
    value {
      type: DT_INT32
    }
  }
}
node {
  name: "Postprocessor/BatchMultiClassNonMaxSuppression/map/while/TensorArrayWrite_1/TensorArrayWriteV3"
  op: "TensorArrayWriteV3"
  input: "Postprocessor/BatchMultiClassNonMaxSuppression/map/while/TensorArrayWrite_1/TensorArrayWriteV3/Enter"
  input: "Postprocessor/BatchMultiClassNonMaxSuppression/map/while/Identity_1"
  input: "Postprocessor/BatchMultiClassNonMaxSuppression/map/while/PadOrClipBoxList/Pad_1"
  input: "Postprocessor/BatchMultiClassNonMaxSuppression/map/while/Identity_3"
  attr {
    key: "T"
    value {
      type: DT_FLOAT
    }
  }
  attr {
    key: "_class"
    value {
      list {
        s: "loc:@Postprocessor/BatchMultiClassNonMaxSuppression/map/while/PadOrClipBoxList/Pad_1"
      }
    }
  }
}
node {
  name: "Postprocessor/BatchMultiClassNonMaxSuppression/map/while/NextIteration_3"
  op: "NextIteration"
  input: "Postprocessor/BatchMultiClassNonMaxSuppression/map/while/TensorArrayWrite_1/TensorArrayWriteV3"
  attr {
    key: "T"
    value {
      type: DT_FLOAT
    }
  }
}
node {
  name: "Postprocessor/BatchMultiClassNonMaxSuppression/map/while/MultiClassNonMaxSuppression/zeros_like"
  op: "ZerosLike"
  input: "Postprocessor/BatchMultiClassNonMaxSuppression/map/while/MultiClassNonMaxSuppression/Select"
  attr {
    key: "T"
    value {
      type: DT_FLOAT
    }
  }
}
node {
  name: "Postprocessor/BatchMultiClassNonMaxSuppression/map/while/MultiClassNonMaxSuppression/add_1"
  op: "Add"
  input: "Postprocessor/BatchMultiClassNonMaxSuppression/map/while/MultiClassNonMaxSuppression/zeros_like"
  input: "Postprocessor/BatchMultiClassNonMaxSuppression/map/while/MultiClassNonMaxSuppression/add_1/y"
  attr {
    key: "T"
    value {
      type: DT_FLOAT
    }
  }
}
node {
  name: "Postprocessor/BatchMultiClassNonMaxSuppression/map/while/MultiClassNonMaxSuppression/Concatenate/concat_3"
  op: "ConcatV2"
  input: "Postprocessor/BatchMultiClassNonMaxSuppression/map/while/MultiClassNonMaxSuppression/add_1"
  input: "Postprocessor/BatchMultiClassNonMaxSuppression/map/while/MultiClassNonMaxSuppression/add_3"
  input: "Postprocessor/BatchMultiClassNonMaxSuppression/map/while/MultiClassNonMaxSuppression/add_5"
  input: "Postprocessor/BatchMultiClassNonMaxSuppression/map/while/MultiClassNonMaxSuppression/add_7"
  input: "Postprocessor/BatchMultiClassNonMaxSuppression/map/while/MultiClassNonMaxSuppression/Concatenate/concat_3/axis"
  attr {
    key: "N"
    value {
      i: 4
    }
  }
  attr {
    key: "T"
    value {
      type: DT_FLOAT
    }
  }
  attr {
    key: "Tidx"
    value {
      type: DT_INT32
    }
  }
}
node {
  name: "Postprocessor/BatchMultiClassNonMaxSuppression/map/while/MultiClassNonMaxSuppression/SortByField/Gather/GatherV2_3"
  op: "GatherV2"
  input: "Postprocessor/BatchMultiClassNonMaxSuppression/map/while/MultiClassNonMaxSuppression/Concatenate/concat_3"
  input: "Postprocessor/BatchMultiClassNonMaxSuppression/map/while/MultiClassNonMaxSuppression/SortByField/TopKV2:1"
  input: "Postprocessor/BatchMultiClassNonMaxSuppression/map/while/MultiClassNonMaxSuppression/SortByField/Gather/GatherV2_3/axis"
  attr {
    key: "Taxis"
    value {
      type: DT_INT32
    }
  }
  attr {
    key: "Tindices"
    value {
      type: DT_INT32
    }
  }
  attr {
    key: "Tparams"
    value {
      type: DT_FLOAT
    }
  }
}
node {
  name: "Postprocessor/BatchMultiClassNonMaxSuppression/map/while/MultiClassNonMaxSuppression/ClipToWindow/Gather/GatherV2_3"
  op: "GatherV2"
  input: "Postprocessor/BatchMultiClassNonMaxSuppression/map/while/MultiClassNonMaxSuppression/SortByField/Gather/GatherV2_3"
  input: "Postprocessor/BatchMultiClassNonMaxSuppression/map/while/MultiClassNonMaxSuppression/ClipToWindow/Cast"
  input: "Postprocessor/BatchMultiClassNonMaxSuppression/map/while/MultiClassNonMaxSuppression/ClipToWindow/Gather/GatherV2_3/axis"
  attr {
    key: "Taxis"
    value {
      type: DT_INT32
    }
  }
  attr {
    key: "Tindices"
    value {
      type: DT_INT32
    }
  }
  attr {
    key: "Tparams"
    value {
      type: DT_FLOAT
    }
  }
}
node {
  name: "Postprocessor/BatchMultiClassNonMaxSuppression/map/while/MultiClassNonMaxSuppression/SortByField_1/Gather/GatherV2_3"
  op: "GatherV2"
  input: "Postprocessor/BatchMultiClassNonMaxSuppression/map/while/MultiClassNonMaxSuppression/ClipToWindow/Gather/GatherV2_3"
  input: "Postprocessor/BatchMultiClassNonMaxSuppression/map/while/MultiClassNonMaxSuppression/SortByField_1/TopKV2:1"
  input: "Postprocessor/BatchMultiClassNonMaxSuppression/map/while/MultiClassNonMaxSuppression/SortByField_1/Gather/GatherV2_3/axis"
  attr {
    key: "Taxis"
    value {
      type: DT_INT32
    }
  }
  attr {
    key: "Tindices"
    value {
      type: DT_INT32
    }
  }
  attr {
    key: "Tparams"
    value {
      type: DT_FLOAT
    }
  }
}
node {
  name: "Postprocessor/BatchMultiClassNonMaxSuppression/map/while/MultiClassNonMaxSuppression/Gather_4/GatherV2_3"
  op: "GatherV2"
  input: "Postprocessor/BatchMultiClassNonMaxSuppression/map/while/MultiClassNonMaxSuppression/SortByField_1/Gather/GatherV2_3"
  input: "Postprocessor/BatchMultiClassNonMaxSuppression/map/while/MultiClassNonMaxSuppression/range_4"
  input: "Postprocessor/BatchMultiClassNonMaxSuppression/map/while/MultiClassNonMaxSuppression/Gather_4/GatherV2_3/axis"
  attr {
    key: "Taxis"
    value {
      type: DT_INT32
    }
  }
  attr {
    key: "Tindices"
    value {
      type: DT_INT32
    }
  }
  attr {
    key: "Tparams"
    value {
      type: DT_FLOAT
    }
  }
}
node {
  name: "Postprocessor/BatchMultiClassNonMaxSuppression/map/while/MultiClassNonMaxSuppression/Gather_5/GatherV2_3"
  op: "GatherV2"
  input: "Postprocessor/BatchMultiClassNonMaxSuppression/map/while/MultiClassNonMaxSuppression/Gather_4/GatherV2_3"
  input: "Postprocessor/BatchMultiClassNonMaxSuppression/map/while/MultiClassNonMaxSuppression/range_5"
  input: "Postprocessor/BatchMultiClassNonMaxSuppression/map/while/MultiClassNonMaxSuppression/Gather_5/GatherV2_3/axis"
  attr {
    key: "Taxis"
    value {
      type: DT_INT32
    }
  }
  attr {
    key: "Tindices"
    value {
      type: DT_INT32
    }
  }
  attr {
    key: "Tparams"
    value {
      type: DT_FLOAT
    }
  }
}
node {
  name: "Postprocessor/BatchMultiClassNonMaxSuppression/map/while/PadOrClipBoxList/Shape_6"
  op: "Shape"
  input: "Postprocessor/BatchMultiClassNonMaxSuppression/map/while/MultiClassNonMaxSuppression/Gather_5/GatherV2_3"
  attr {
    key: "T"
    value {
      type: DT_FLOAT
    }
  }
  attr {
    key: "out_type"
    value {
      type: DT_INT32
    }
  }
}
node {
  name: "Postprocessor/BatchMultiClassNonMaxSuppression/map/while/PadOrClipBoxList/strided_slice_12"
  op: "StridedSlice"
  input: "Postprocessor/BatchMultiClassNonMaxSuppression/map/while/PadOrClipBoxList/Shape_6"
  input: "Postprocessor/BatchMultiClassNonMaxSuppression/map/while/PadOrClipBoxList/strided_slice_12/stack"
  input: "Postprocessor/BatchMultiClassNonMaxSuppression/map/while/PadOrClipBoxList/strided_slice_12/stack_1"
  input: "Postprocessor/BatchMultiClassNonMaxSuppression/map/while/PadOrClipBoxList/strided_slice_12/stack_2"
  attr {
    key: "Index"
    value {
      type: DT_INT32
    }
  }
  attr {
    key: "T"
    value {
      type: DT_INT32
    }
  }
  attr {
    key: "begin_mask"
    value {
      i: 0
    }
  }
  attr {
    key: "ellipsis_mask"
    value {
      i: 0
    }
  }
  attr {
    key: "end_mask"
    value {
      i: 0
    }
  }
  attr {
    key: "new_axis_mask"
    value {
      i: 0
    }
  }
  attr {
    key: "shrink_axis_mask"
    value {
      i: 1
    }
  }
}
node {
  name: "Postprocessor/BatchMultiClassNonMaxSuppression/map/while/PadOrClipBoxList/sub_12"
  op: "Sub"
  input: "Postprocessor/BatchMultiClassNonMaxSuppression/map/while/PadOrClipBoxList/strided_slice_12"
  input: "Postprocessor/BatchMultiClassNonMaxSuppression/map/while/PadOrClipBoxList/sub_12/y"
  attr {
    key: "T"
    value {
      type: DT_INT32
    }
  }
}
node {
  name: "Postprocessor/BatchMultiClassNonMaxSuppression/map/while/PadOrClipBoxList/Greater_6"
  op: "Greater"
  input: "Postprocessor/BatchMultiClassNonMaxSuppression/map/while/PadOrClipBoxList/sub_12"
  input: "Postprocessor/BatchMultiClassNonMaxSuppression/map/while/PadOrClipBoxList/Greater_6/y"
  attr {
    key: "T"
    value {
      type: DT_INT32
    }
  }
}
node {
  name: "Postprocessor/BatchMultiClassNonMaxSuppression/map/while/PadOrClipBoxList/Select_6"
  op: "Select"
  input: "Postprocessor/BatchMultiClassNonMaxSuppression/map/while/PadOrClipBoxList/Greater_6"
  input: "Postprocessor/BatchMultiClassNonMaxSuppression/map/while/PadOrClipBoxList/Select_6/t"
  input: "Postprocessor/BatchMultiClassNonMaxSuppression/map/while/PadOrClipBoxList/Select_6/e"
  attr {
    key: "T"
    value {
      type: DT_INT32
    }
  }
}
node {
  name: "Postprocessor/BatchMultiClassNonMaxSuppression/map/while/PadOrClipBoxList/Slice_3/size"
  op: "Pack"
  input: "Postprocessor/BatchMultiClassNonMaxSuppression/map/while/PadOrClipBoxList/Select_6"
  attr {
    key: "N"
    value {
      i: 1
    }
  }
  attr {
    key: "T"
    value {
      type: DT_INT32
    }
  }
  attr {
    key: "axis"
    value {
      i: 0
    }
  }
}
node {
  name: "Postprocessor/BatchMultiClassNonMaxSuppression/map/while/PadOrClipBoxList/Slice_3"
  op: "Slice"
  input: "Postprocessor/BatchMultiClassNonMaxSuppression/map/while/MultiClassNonMaxSuppression/Gather_5/GatherV2_3"
  input: "Postprocessor/BatchMultiClassNonMaxSuppression/map/while/PadOrClipBoxList/zeros_6"
  input: "Postprocessor/BatchMultiClassNonMaxSuppression/map/while/PadOrClipBoxList/Slice_3/size"
  attr {
    key: "Index"
    value {
      type: DT_INT32
    }
  }
  attr {
    key: "T"
    value {
      type: DT_FLOAT
    }
  }
}
node {
  name: "Postprocessor/BatchMultiClassNonMaxSuppression/map/while/PadOrClipBoxList/Shape_7"
  op: "Shape"
  input: "Postprocessor/BatchMultiClassNonMaxSuppression/map/while/PadOrClipBoxList/Slice_3"
  attr {
    key: "T"
    value {
      type: DT_FLOAT
    }
  }
  attr {
    key: "out_type"
    value {
      type: DT_INT32
    }
  }
}
node {
  name: "Postprocessor/BatchMultiClassNonMaxSuppression/map/while/PadOrClipBoxList/strided_slice_13"
  op: "StridedSlice"
  input: "Postprocessor/BatchMultiClassNonMaxSuppression/map/while/PadOrClipBoxList/Shape_7"
  input: "Postprocessor/BatchMultiClassNonMaxSuppression/map/while/PadOrClipBoxList/strided_slice_13/stack"
  input: "Postprocessor/BatchMultiClassNonMaxSuppression/map/while/PadOrClipBoxList/strided_slice_13/stack_1"
  input: "Postprocessor/BatchMultiClassNonMaxSuppression/map/while/PadOrClipBoxList/strided_slice_13/stack_2"
  attr {
    key: "Index"
    value {
      type: DT_INT32
    }
  }
  attr {
    key: "T"
    value {
      type: DT_INT32
    }
  }
  attr {
    key: "begin_mask"
    value {
      i: 0
    }
  }
  attr {
    key: "ellipsis_mask"
    value {
      i: 0
    }
  }
  attr {
    key: "end_mask"
    value {
      i: 0
    }
  }
  attr {
    key: "new_axis_mask"
    value {
      i: 0
    }
  }
  attr {
    key: "shrink_axis_mask"
    value {
      i: 1
    }
  }
}
node {
  name: "Postprocessor/BatchMultiClassNonMaxSuppression/map/while/PadOrClipBoxList/sub_13"
  op: "Sub"
  input: "Postprocessor/BatchMultiClassNonMaxSuppression/map/while/PadOrClipBoxList/sub_13/x"
  input: "Postprocessor/BatchMultiClassNonMaxSuppression/map/while/PadOrClipBoxList/strided_slice_13"
  attr {
    key: "T"
    value {
      type: DT_INT32
    }
  }
}
node {
  name: "Postprocessor/BatchMultiClassNonMaxSuppression/map/while/PadOrClipBoxList/stack_3/values_1"
  op: "Pack"
  input: "Postprocessor/BatchMultiClassNonMaxSuppression/map/while/PadOrClipBoxList/sub_13"
  attr {
    key: "N"
    value {
      i: 1
    }
  }
  attr {
    key: "T"
    value {
      type: DT_INT32
    }
  }
  attr {
    key: "axis"
    value {
      i: 0
    }
  }
}
node {
  name: "Postprocessor/BatchMultiClassNonMaxSuppression/map/while/PadOrClipBoxList/stack_3"
  op: "Pack"
  input: "Postprocessor/BatchMultiClassNonMaxSuppression/map/while/PadOrClipBoxList/zeros_7"
  input: "Postprocessor/BatchMultiClassNonMaxSuppression/map/while/PadOrClipBoxList/stack_3/values_1"
  attr {
    key: "N"
    value {
      i: 2
    }
  }
  attr {
    key: "T"
    value {
      type: DT_INT32
    }
  }
  attr {
    key: "axis"
    value {
      i: 1
    }
  }
}
node {
  name: "Postprocessor/BatchMultiClassNonMaxSuppression/map/while/PadOrClipBoxList/Pad_3"
  op: "Pad"
  input: "Postprocessor/BatchMultiClassNonMaxSuppression/map/while/PadOrClipBoxList/Slice_3"
  input: "Postprocessor/BatchMultiClassNonMaxSuppression/map/while/PadOrClipBoxList/stack_3"
  attr {
    key: "T"
    value {
      type: DT_FLOAT
    }
  }
  attr {
    key: "Tpaddings"
    value {
      type: DT_INT32
    }
  }
}
node {
  name: "Postprocessor/BatchMultiClassNonMaxSuppression/map/while/TensorArrayWrite_2/TensorArrayWriteV3"
  op: "TensorArrayWriteV3"
  input: "Postprocessor/BatchMultiClassNonMaxSuppression/map/while/TensorArrayWrite_2/TensorArrayWriteV3/Enter"
  input: "Postprocessor/BatchMultiClassNonMaxSuppression/map/while/Identity_1"
  input: "Postprocessor/BatchMultiClassNonMaxSuppression/map/while/PadOrClipBoxList/Pad_3"
  input: "Postprocessor/BatchMultiClassNonMaxSuppression/map/while/Identity_4"
  attr {
    key: "T"
    value {
      type: DT_FLOAT
    }
  }
  attr {
    key: "_class"
    value {
      list {
        s: "loc:@Postprocessor/BatchMultiClassNonMaxSuppression/map/while/PadOrClipBoxList/Pad_3"
      }
    }
  }
}
node {
  name: "Postprocessor/BatchMultiClassNonMaxSuppression/map/while/NextIteration_4"
  op: "NextIteration"
  input: "Postprocessor/BatchMultiClassNonMaxSuppression/map/while/TensorArrayWrite_2/TensorArrayWriteV3"
  attr {
    key: "T"
    value {
      type: DT_FLOAT
    }
  }
}
node {
  name: "Preprocessor/map/while/Identity_2"
  op: "Identity"
  input: "Preprocessor/map/while/Switch_2:1"
  attr {
    key: "T"
    value {
      type: DT_FLOAT
    }
  }
}
node {
  name: "Preprocessor/map/TensorArray"
  op: "TensorArrayV3"
  input: "Preprocessor/map/strided_slice"
  attr {
    key: "clear_after_read"
    value {
      b: true
    }
  }
  attr {
    key: "dtype"
    value {
      type: DT_FLOAT
    }
  }
  attr {
    key: "dynamic_size"
    value {
      b: false
    }
  }
  attr {
    key: "element_shape"
    value {
      shape {
        unknown_rank: true
      }
    }
  }
  attr {
    key: "identical_element_shapes"
    value {
      b: true
    }
  }
  attr {
    key: "tensor_array_name"
    value {
      s: ""
    }
  }
}
node {
  name: "Preprocessor/map/while/TensorArrayReadV3/Enter"
  op: "Enter"
  input: "Preprocessor/map/TensorArray"
  attr {
    key: "T"
    value {
      type: 20
    }
  }
  attr {
    key: "frame_name"
    value {
      s: "Preprocessor/map/while/while_context"
    }
  }
  attr {
    key: "is_constant"
    value {
      b: true
    }
  }
  attr {
    key: "parallel_iterations"
    value {
      i: 32
    }
  }
}
node {
  name: "Preprocessor/map/TensorArrayUnstack/TensorArrayScatter/TensorArrayScatterV3"
  op: "TensorArrayScatterV3"
  input: "Preprocessor/map/TensorArray"
  input: "Preprocessor/map/TensorArrayUnstack/range"
  input: "ToFloat"
  input: "Preprocessor/map/TensorArray:1"
  attr {
    key: "T"
    value {
      type: DT_FLOAT
    }
  }
  attr {
    key: "_class"
    value {
      list {
        s: "loc:@ToFloat"
      }
    }
  }
}
node {
  name: "Preprocessor/map/while/TensorArrayReadV3/Enter_1"
  op: "Enter"
  input: "Preprocessor/map/TensorArrayUnstack/TensorArrayScatter/TensorArrayScatterV3"
  attr {
    key: "T"
    value {
      type: DT_FLOAT
    }
  }
  attr {
    key: "frame_name"
    value {
      s: "Preprocessor/map/while/while_context"
    }
  }
  attr {
    key: "is_constant"
    value {
      b: true
    }
  }
  attr {
    key: "parallel_iterations"
    value {
      i: 32
    }
  }
}
node {
  name: "Preprocessor/map/while/TensorArrayReadV3"
  op: "TensorArrayReadV3"
  input: "Preprocessor/map/while/TensorArrayReadV3/Enter"
  input: "Preprocessor/map/while/Identity_1"
  input: "Preprocessor/map/while/TensorArrayReadV3/Enter_1"
  attr {
    key: "dtype"
    value {
      type: DT_FLOAT
    }
  }
}
node {
  name: "Preprocessor/map/while/ResizeImage/resize/ExpandDims"
  op: "ExpandDims"
  input: "Preprocessor/map/while/TensorArrayReadV3"
  input: "Preprocessor/map/while/ResizeImage/resize/ExpandDims/dim"
  attr {
    key: "T"
    value {
      type: DT_FLOAT
    }
  }
  attr {
    key: "Tdim"
    value {
      type: DT_INT32
    }
  }
}
node {
  name: "Preprocessor/map/while/ResizeImage/resize/ResizeBilinear"
  op: "ResizeBilinear"
  input: "Preprocessor/map/while/ResizeImage/resize/ExpandDims"
  input: "Preprocessor/map/while/ResizeImage/stack"
  attr {
    key: "T"
    value {
      type: DT_FLOAT
    }
  }
  attr {
    key: "align_corners"
    value {
      b: false
    }
  }
}
node {
  name: "Preprocessor/map/while/ResizeImage/resize/Squeeze"
  op: "Squeeze"
  input: "Preprocessor/map/while/ResizeImage/resize/ResizeBilinear"
  attr {
    key: "T"
    value {
      type: DT_FLOAT
    }
  }
  attr {
    key: "squeeze_dims"
    value {
      list {
        i: 0
      }
    }
  }
}
node {
  name: "Preprocessor/map/while/TensorArrayWrite/TensorArrayWriteV3"
  op: "TensorArrayWriteV3"
  input: "Preprocessor/map/while/TensorArrayWrite/TensorArrayWriteV3/Enter"
  input: "Preprocessor/map/while/Identity_1"
  input: "Preprocessor/map/while/ResizeImage/resize/Squeeze"
  input: "Preprocessor/map/while/Identity_2"
  attr {
    key: "T"
    value {
      type: DT_FLOAT
    }
  }
  attr {
    key: "_class"
    value {
      list {
        s: "loc:@Preprocessor/map/while/ResizeImage/resize/Squeeze"
      }
    }
  }
}
node {
  name: "Preprocessor/map/while/NextIteration_2"
  op: "NextIteration"
  input: "Preprocessor/map/while/TensorArrayWrite/TensorArrayWriteV3"
  attr {
    key: "T"
    value {
      type: DT_FLOAT
    }
  }
}
library {
}
